lightning_logs/version_0/checkpoints/epoch=3-step=120.ckpt (torch, 24543 bytes, 45 tensors)

module.location_embedding.weight f4 [57, 4]
0	0xbff91012	-1.9458029
1	0x3f936166	1.1514099
2	0xbe8638c4	-0.26215184
3	0x3e34a20b	0.1763994
4	0xbf432340	-0.7622566
5	0x3e4a84c9	0.19777216
6	0x3f071301	0.5276337
7	0xbfbc7972	-1.4724562
8	0x3fe0392b	1.7517446
9	0x3e9232e7	0.2855446
10	0x3fa95f7c	1.3232265
11	0xbe0ac4e7	-0.13551675
12	0x3eae70ba	0.3407038
13	0xbf9fda81	-1.2488557
14	0xbf571c5c	-0.8402765
15	0x3e3fd7b7	0.18734632
16	0xbf1ec1e6	-0.62014616
17	0xbe8f095c	-0.27936828
18	0x3f3ed6bb	0.745464
19	0xbe2f3f86	-0.17114076
20	0x4009b64a	2.151751
21	0x3d5b7380	0.053576946
22	0x3d7c7906	0.061638854
23	0x3efa02a8	0.48830152
24	0x3ed45c53	0.41476688
25	0x3fb155bf	1.3854293
26	0x3eb11e5e	0.3459348
27	0xc009cc5c	-2.153098
28	0x3faf9cc8	1.3719721
29	0xbd94f1d3	-0.07272687
30	0x3f65705e	0.89624584
31	0x3eed96c9	0.46404102
32	0x3f2d20fb	0.6762845
33	0x3e878516	0.26468724
34	0x3f1aa4a1	0.60407454
35	0xbf0c777e	-0.5486983
36	0xbfbe4f0e	-1.4867876
37	0x3f974acb	1.18197
38	0xbf41363d	-0.75473386
39	0xbebc1030	-0.367311
40	0x3edf5d17	0.4362571
41	0xbf7091fd	-0.9397276
42	0x401918ab	2.3921306
43	0x3e9aca58	0.302325
44	0x3e459232	0.1929405
45	0xbf3931f9	-0.7234188
46	0x3f94ca41	1.1624223
47	0x3f8f627d	1.1201931
48	0x3f4a3da4	0.79000306
49	0xbd9995fa	-0.07499309
50	0x3f157c81	0.583931
51	0xbf225dfc	-0.6342466
52	0xbede86a8	-0.4346211
53	0x3f592823	0.8482687
54	0xbecf72a3	-0.40517148
55	0x3ebfe414	0.37478697
56	0xbf99adf6	-1.2006214
57	0x4001ded0	2.0292244
58	0xbf19bfa7	-0.60058063
59	0xbe15c72a	-0.14626756
60	0xbf2b70e9	-0.6696916
61	0x3ef6773f	0.48137853
62	0x3fe32f9f	1.7748908
63	0xbf6ea321	-0.93217665
64	0x3f30f18c	0.6911857
65	0x4001def2	2.0292325
66	0x3e772201	0.24134065
67	0x3ffad9e1	1.9597741
68	0xbe8f7d52	-0.280253
69	0xbea3d0d4	-0.3199526
70	0x3fc4f2f1	1.538664
71	0x3ed26dd3	0.41099414
72	0xbf499a66	-0.7875122
73	0xbe8f368d	-0.27971306
74	0x3f9d6168	1.2295351
75	0x3e55c102	0.20874408
76	0x3f30bba1	0.690363
77	0x3fa38e76	1.2777851
78	0xbe0d27fd	-0.13784786
79	0xbe9fb29c	-0.31190956
80	0xbfeecbab	-1.8655905
81	0x3efcc96d	0.49372426
82	0xbdc516b6	-0.096234724
83	0x3fc2fc5f	1.5233268
84	0x3fac33c3	1.3453296
85	0xbf00a34e	-0.50249183
86	0xbdcf2728	-0.1011489
87	0x3e97de6e	0.29661888
88	0x3eb11425	0.34585682
89	0xbf62c68c	-0.8858421
90	0xbf33e60f	-0.70272917
91	0xbe678dd2	-0.22612694
92	0xbeb9c7e5	-0.3628532
93	0x3ebbea66	0.3670227
94	0x3f7ad16b	0.97975796
95	0xbf4e2bae	-0.805354
96	0x3ce2c960	0.027683914
97	0xbf0fed90	-0.56221867
98	0xbf1900d7	-0.59766906
99	0xbf89acc8	-1.0755854
100	0x3f2a1d37	0.6645083
101	0x3c620b79	0.013796681
102	0x3fb259f0	1.3933697
103	0x3fa0503a	1.2524483
104	0xbe430d80	-0.19048119
105	0x3f8ed230	1.1157894
106	0xbf900ed4	-1.1254525
107	0xbf923946	-1.1423728
108	0x3f6f9928	0.9359307
109	0xbf12bfaa	-0.57323706
110	0xbefd4799	-0.49468687
111	0xbebf3768	-0.3734696
112	0xbf711ebd	-0.9418753
113	0x3c999008	0.018745437
114	0x3f658fc5	0.896725
115	0xbf06bbd6	-0.52630365
116	0xbfccf4a2	-1.6012156
117	0xbe5cfb91	-0.2158034
118	0x3dda1e90	0.106503606
119	0x3f718db3	0.9435684
120	0xbe98e071	-0.29858735
121	0xbea8d2e6	-0.32973403
122	0x3fd17fbc	1.6367106
123	0xbceedafa	-0.02915715
124	0xbeadb8cb	-0.33930048
125	0x3fdea6bb	1.7394632
126	0x3e299000	0.16558838
127	0xbe7bd5d5	-0.24593289
128	0xbeeb1824	-0.45916855
129	0x3eda8025	0.42675892
130	0xbf066b56	-0.5250753
131	0xbf2d863f	-0.6778297
132	0x3fb5a0ed	1.4189736
133	0xbf2b94b6	-0.6702379
134	0x3f08770b	0.53306645
135	0xbfcf5c27	-1.6199998
136	0x3fc11d52	1.5087073
137	0x3ffd71ea	1.9800389
138	0xbee5d4c2	-0.44888884
139	0x3ea55a8b	0.3229564
140	0x3dad1d35	0.084528364
141	0xbe75bd0f	-0.23997901
142	0x3fc6d717	1.553439
143	0xc03e1538	-2.970045
144	0x3f9b04fe	1.2110898
145	0xbf4ae95f	-0.79262346
146	0x3e891583	0.26774225
147	0x3e45e702	0.19326404
148	0x3f552bdc	0.8327005
149	0xc019010a	-2.3906884
150	0xbf6fd6c3	-0.93687075
151	0x3fc202b6	1.5157077
152	0x3e9f787e	0.31146616
153	0xbfd719f8	-1.68048
154	0x3de3eb61	0.11128879
155	0xbf85b87c	-1.0446925
156	0x3c4af717	0.012388012
157	0xbeec22ba	-0.46120244
158	0xbef424f0	-0.4768443
159	0x3e3a272d	0.18179007
160	0x3f7288f0	0.947402
161	0x3ebe0186	0.37110537
162	0xbf03b413	-0.51446646
163	0xbf89deda	-1.0771134
164	0xbe649fb7	-0.22326551
165	0xbf6a0ca1	-0.9142552
166	0xbea65ea8	-0.32494092
167	0x3fa5dae2	1.2957423
168	0x3f1bd6bf	0.6087455
169	0xbf97b826	-1.1853073
170	0xbe984492	-0.29739815
171	0x3e8483cf	0.25881812
172	0xbd9624c7	-0.073312335
173	0x3f8f11ad	1.1177269
174	0xbea83e45	-0.32860008
175	0xbf0b6deb	-0.54464597
176	0xbba83f7a	-0.00513452
177	0xbf6df43d	-0.92950803
178	0x3fa1db23	1.2645
179	0xbd27a2d4	-0.04092677
180	0x3d633696	0.05547198
181	0xbe2cfcac	-0.16893262
182	0x3f3fdf04	0.7494967
183	0xbfa30104	-1.2734685
184	0xbfbc2a31	-1.4700376
185	0xbeecff83	-0.4628869
186	0xbfa9f60f	-1.3278216
187	0x3d6b28fa	0.057412125
188	0xbdab5908	-0.08366591
189	0xbf8989bf	-1.0745162
190	0xbfb64674	-1.424025
191	0xbf10e7ed	-0.5660389
192	0x3e93642e	0.2878737
193	0xbe0fdcb6	-0.14049038
194	0x3f4864a7	0.78278583
195	0x3edb66cf	0.42851874
196	0xbf8c8304	-1.0977483
197	0x3fbbae78	1.4662619
198	0x3d9b94a4	0.0759671
199	0x3cd1d061	0.025612058
200	0xbf68901a	-0.9084488
201	0x3ee682d8	0.450217
202	0xbf6a25ae	-0.91463745
203	0x3e89f453	0.26944217
204	0xbfb292d1	-1.3951055
205	0xbf28d372	-0.6594764
206	0xbe19a20e	-0.15003225
207	0x3fc80e31	1.5629331
208	0xbe92af08	-0.28649163
209	0x3ec6735f	0.38759896
210	0x3fdfc1f2	1.7481062
211	0x3df17cb9	0.11791367
212	0x3fb8255f	1.4386405
213	0x3dde42da	0.10852595
214	0xbe8906ab	-0.267629
215	0x3f72174a	0.94566786
216	0xbfd62f9b	-1.6733278
217	0x3d623e44	0.055235162
218	0x3f717357	0.9431662
219	0x3fe52ed7	1.7904919
220	0x3f381a4d	0.7191513
221	0xbe841884	-0.25799954
222	0xbff121fa	-1.8838494
223	0xbe80d74a	-0.25164253
224	0xbec0dffd	-0.3767089
225	0xbf25c6c6	-0.6475643
226	0x3f2c7185	0.6736072
227	0xbfc2c430	-1.5216122

module.preprocess.weight f4 [4, 11]
0	0xbd8085b2	-0.062755
1	0xbe9c08e5	-0.30475536
2	0x3c509d47	0.01273281
3	0x3dc10ce9	0.094262905
4	0x3dcfa28c	0.10138425
5	0x3e23c4bd	0.15993018
6	0x3be346f2	0.0069359476
7	0xbe437791	-0.1908858
8	0x3bab2081	0.0052223806
9	0x3c04c94e	0.008104635
10	0xbe138bc3	-0.14408784
11	0xbe3a6423	-0.18202262
12	0x3eb4349b	0.35196385
13	0x3d547da4	0.051877633
14	0xbb442f56	-0.002993544
15	0x3b81128e	0.0039389795
16	0x3ec6169a	0.3868912
17	0xbd6cb807	-0.05779269
18	0xbe874848	-0.26422334
19	0x3b64b1c2	0.003489599
20	0x3e8c6a8a	0.27425033
21	0xbeae5a65	-0.3405334
22	0xbe024881	-0.1272297
23	0x3edd3eee	0.43212074
24	0x3e65ddb9	0.22447862
25	0xbc7b09d2	-0.015322166
26	0x3ce4d0a4	0.027931519
27	0xbe14e8bb	-0.14541905
28	0xbe48acfc	-0.19597238
29	0xbd8137a2	-0.06309439
30	0x3eb5facd	0.35542908
31	0x3e8a02b9	0.26955202
32	0x3e6b33e8	0.2296902
33	0xbe4e7b8d	-0.20164318
34	0x3e2a6b77	0.16642557
35	0x3d4e5805	0.05037691
36	0xbd79e839	-0.06101248
37	0x3dba4259	0.09094686
38	0xbea2d4ea	-0.31803066
39	0xbd066234	-0.032808498
40	0x3d85d0e5	0.06533984
41	0xbdca83c7	-0.09888416
42	0xbe2fc9dd	-0.17166848
43	0xbe672b34	-0.22575074

module.preprocess.bias f4 [4]
0	0xbd447d3a	-0.047970988
1	0xbcc7bfcd	-0.02438345
2	0x3d58a63c	0.05289291
3	0x3e1c6b69	0.15275349

module.rnn.weight_ih_l0 f4 [12, 4]
0	0xbd38bf33	-0.045104217
1	0xbe8b84f7	-0.27249882
2	0xbe94b3e4	-0.29043496
3	0xbeeac1c3	-0.45850953
4	0xbd75a401	-0.05997086
5	0x3e90f8a9	0.28314713
6	0xbe6fd1b5	-0.2341984
7	0xbe6e14f8	-0.23250186
8	0x3ebdb231	0.37050012
9	0xbe8c26d5	-0.27373376
10	0x3e45fa7c	0.19333833
11	0xbd6749e0	-0.056466937
12	0x3e9f537c	0.3111838
13	0x3f1f8fcc	0.6232879
14	0xbe5cab2c	-0.21549672
15	0x3daf8139	0.08569569
16	0xbdab689c	-0.08369562
17	0x3d6d916f	0.058000024
18	0xbebbe2d4	-0.36696494
19	0xbebb5e1c	-0.36595237
20	0x3e5d2529	0.21596207
21	0x3eac80f3	0.3369213
22	0x3c6e896a	0.014559129
23	0xbd677c47	-0.056515004
24	0xbe5c00be	-0.21484658
25	0xbe74c75e	-0.23904178
26	0xbdc32df5	-0.0953025
27	0x3edaf8d1	0.42767957
28	0xbefe84d4	-0.49710715
29	0x3ebd5972	0.36982304
30	0xbeef7006	-0.46765155
31	0xbec3fcbf	-0.38278767
32	0xbea02124	-0.31275284
33	0x3e673bac	0.22581357
34	0x3e441f08	0.19152462
35	0xbe9df4f0	-0.30850935
36	0x3e693eb4	0.22777826
37	0xbeb711c0	-0.3575573
38	0xbefa9140	-0.48938942
39	0x3dd7bd9a	0.105342105
40	0xbebeb8d7	-0.37250397
41	0x3e81917a	0.25306302
42	0xbe97cba9	-0.29647568
43	0xbe4db395	-0.20088036
44	0xbe6d0f4f	-0.23150371
45	0x3e041aad	0.12900801
46	0xbf020641	-0.5079079
47	0xbec09e34	-0.376207

module.rnn.weight_hh_l0 f4 [12, 4]
0	0xbeb641d0	-0.35597086
1	0x3e6abfbb	0.22924702
2	0xbeace418	-0.33767772
3	0xbeac005a	-0.33594018
4	0xbea0a30b	-0.31374392
5	0x3e8174bb	0.2528437
6	0x3ec298a5	0.38007084
7	0xbf137594	-0.57601285
8	0x3f0c2444	0.54742837
9	0x3ec31607	0.38102743
10	0x3eeca888	0.4622233
11	0x3e9bc03c	0.304201
12	0xbea2c89c	-0.31793678
13	0xbea72f00	-0.32653046
14	0x3d83f741	0.06443644
15	0xbed02198	-0.4065063
16	0xbef387d8	-0.47564578
17	0xbe39bb2f	-0.18137811
18	0xbe2884ea	-0.16456953
19	0xbebeb5c4	-0.3724805
20	0x3eccd75d	0.4000806
21	0x3ec32e67	0.3812134
22	0xbef2dfa6	-0.47436255
23	0x3ef0837f	0.46975324
24	0xbedd90e1	-0.43274596
25	0xbe85b122	-0.26111704
26	0xbd7b8f70	-0.06141609
27	0x3f00de9e	0.50339687
28	0x3d885542	0.06656887
29	0xbc43faad	-0.011961621
30	0x3e2d6f14	0.16936904
31	0xbe01e9a9	-0.1268679
32	0x3d1b0c81	0.03785372
33	0x3eb1c3a8	0.34719586
34	0x3ca98e4d	0.020697737
35	0x3e37d036	0.1795052
36	0x3dc9c26c	0.09851536
37	0xbe99fac1	-0.30074123
38	0x3ead5e25	0.3386089
39	0x3f02b8dd	0.5106333
40	0x3f00fdf7	0.5038752
41	0xbef0d08e	-0.47034115
42	0x3d1bf019	0.03807077
43	0xbf133c2a	-0.5751368
44	0xbedd5dd8	-0.4323566
45	0x3dd7325c	0.10507652
46	0x3dab7c98	0.08373374
47	0x3f05cad9	0.52262646

module.rnn.bias_ih_l0 f4 [12]
0	0xbebb83c1	-0.36623958
1	0x3f03e8ad	0.5152691
2	0x3eadb48b	0.33926806
3	0xbdc5b3c5	-0.09653429
4	0xbb9aea1c	-0.004727615
5	0xbd6dc6f4	-0.058051065
6	0x3efbe873	0.49200782
7	0xbe3c384e	-0.18380854
8	0x3ecd088d	0.40045586
9	0xbe995748	-0.29949403
10	0x3ec5c82c	0.38629282
11	0xbe44cfd3	-0.19219904

module.rnn.bias_hh_l0 f4 [12]
0	0xbcce9b68	-0.025220588
1	0x3cf40bc5	0.029790768
2	0xbe5bd667	-0.21468507
3	0x3e881fc5	0.26586738
4	0xbe41426d	-0.18872996
5	0x3d12635d	0.03573929
6	0xbe24cc55	-0.16093571
7	0xbd93cde0	-0.07217002
8	0x3e305066	0.1721817
9	0xbf015eee	-0.50535476
10	0x3e4a599e	0.19760749
11	0xbed49249	-0.41517857

module.decoder.weight_ih_l0 f4 [12, 1]
0	0xbe859e06	-0.26097125
1	0x3d1d1821	0.03835309
2	0xbe01e499	-0.1268486
3	0xbd0ed31a	-0.03486929
4	0x3e8c0ae6	0.27352065
5	0x3e80fcb7	0.25192806
6	0xbd0a8fd5	-0.033828575
7	0x3e76d04e	0.241029
8	0xbd4a2ea7	-0.049360897
9	0x3e0e9684	0.13924605
10	0x3e0bd32e	0.13654777
11	0x3ea6575a	0.3248852

module.decoder.weight_hh_l0 f4 [12, 4]
0	0xbe805cce	-0.25070804
1	0x3ebee151	0.37281278
2	0x3ec325be	0.38114733
3	0x3d2353a4	0.039874688
4	0x3e31120e	0.17292044
5	0xbd096fd1	-0.033553902
6	0xbeb847fb	-0.35992417
7	0x3e062c47	0.13102828
8	0x3ea665bd	0.32499495
9	0x3d22ef1f	0.039778825
10	0xbd5e54e8	-0.05428019
11	0xbea3038f	-0.31838652
12	0x3ed855a4	0.4225284
13	0x3e0d861f	0.13820694
14	0x3ed41718	0.4142387
15	0xbe757648	-0.23970902
16	0x3f0705dd	0.5274332
17	0x3e4c71df	0.19965313
18	0x3e918601	0.2842255
19	0xbed20933	-0.41022643
20	0x3f0906cf	0.53526014
21	0xbcf33e86	-0.0296929
22	0xbda16ae9	-0.078817196
23	0xbeb6bea7	-0.3569233
24	0xbe54c22a	-0.20777193
25	0xbeb555df	-0.35417077
26	0x3e31d746	0.17367277
27	0x3e0d8ceb	0.13823287
28	0xbe0b6da5	-0.13616045
29	0xbe2cf455	-0.1689008
30	0xbe8838e4	-0.26605904
31	0x3ddac148	0.10681397
32	0x3e7f316e	0.249212
33	0x3e556b88	0.20841801
34	0x3ea043e2	0.3130179
35	0x3cc669de	0.024220403
36	0x3e760372	0.24024752
37	0x3ebb9fcb	0.3664535
38	0x3ea0b146	0.3138525
39	0x3eff9746	0.499201
40	0x3ed23a2f	0.41060016
41	0xbec1be14	-0.3784033
42	0xbea4a284	-0.3215524
43	0xbdb6a763	-0.08918645
44	0x3e3fa079	0.18713559
45	0x3f0dafb1	0.5534621
46	0xbebeeb24	-0.37288773
47	0xbd53a9db	-0.05167566

module.decoder.bias_ih_l0 f4 [12]
0	0x3e3d8399	0.18507232
1	0xbd83f410	-0.064430356
2	0xbef797e1	-0.48358062
3	0xbe6db03e	-0.23211762
4	0x3f17fd39	0.5937076
5	0x3ef854be	0.48502153
6	0xbe4a8aa8	-0.19779456
7	0xbe39322d	-0.18085547
8	0xbe626d90	-0.22112107
9	0x3e6309bc	0.22171682
10	0xbec11fdd	-0.37719622
11	0x3e8aa3d0	0.27078104

module.decoder.bias_hh_l0 f4 [12]
0	0x3e8ea707	0.27861807
1	0x3eb14945	0.34626213
2	0x3ec5cd16	0.3863303
3	0x3f00df08	0.5034032
4	0xbebb869c	-0.36626136
5	0x3d057fd8	0.032592624
6	0x3e4adbfb	0.19810478
7	0x3c8667f6	0.016406994
8	0xbd1fe166	-0.039033316
9	0x3d13eb0c	0.03611283
10	0xbeb00de2	-0.34385592
11	0xbf06e122	-0.52687275

module.output_decoder.weight f4 [4, 4]
0	0xbe4f58be	-0.20248696
1	0xbe5f4fef	-0.21807836
2	0x3cdda3e4	0.027055688
3	0xbdc980e2	-0.098390356
4	0xbe3bad86	-0.18327913
5	0x3edd04ed	0.4316782
6	0xbeadda6a	-0.339557
7	0x3e440b63	0.19144969
8	0xbc8537ae	-0.016261902
9	0x3e7b3003	0.24530034
10	0x3caddba6	0.0212229
11	0xb7b0f47a	-2.1094678e-05
12	0x3ea8b609	0.32951382
13	0xbd3a7b90	-0.045527995
14	0xbd2c5d64	-0.04208125
15	0xbeba17a0	-0.3634615

module.output_decoder.bias f4 [4]
0	0xbe8a5505	-0.2701799
1	0x3e2d2b09	0.16910948
2	0xbd1554ff	-0.03645801
3	0xbde7696e	-0.11299406

module.ouput_layer.weight f4 [2, 4]
0	0xb8fe799b	-0.000121343146
1	0xbe06b974	-0.13156682
2	0xbeae99cb	-0.3410171
3	0xbdc699ad	-0.0969728
4	0xbe577482	-0.21040538
5	0xbe0a91ff	-0.13532256
6	0x38d6bfb7	0.00010240025
7	0x3db699dc	0.08916065

module.ouput_layer.bias f4 [2]
0	0xbe67d8d1	-0.22641303
1	0x3cecb736	0.028895956

exp_avg f4 [57, 4]
0	0x3b17f149	0.0023184589
1	0xbbe283be	-0.0069126775
2	0xbc1089be	-0.008821903
3	0xba9e315d	-0.0012069155
4	0x3a85a924	0.0010197503
5	0xbadb04d5	-0.0016709814
6	0xbb423087	-0.0029630975
7	0x3930d99d	0.00016865735
8	0x388702e7	6.437842e-05
9	0xb925b155	-0.00015801688
10	0xb92aef34	-0.00016301573
11	0xb8a045e0	-7.64241e-05
12	0x35995191	1.1423127e-06
13	0xb5a09414	-1.1964025e-06
14	0xb569117e	-8.682472e-07
15	0x353cf798	7.0395754e-07
16	0x3acd2830	0.0015652236
17	0xbb465fa3	-0.0030269406
18	0xbb7c53c8	-0.0038502086
19	0xb9646e2c	-0.00021784817
20	0x38ca0e79	9.634806e-05
21	0xb988f99b	-0.00026125912
22	0xb98751f0	-0.00025810255
23	0xb904adcd	-0.00012653247
24	0x3b483f7a	0.0030555413
25	0xbbef9b9f	-0.0073122527
26	0xbc22485b	-0.009904946
27	0xbaeda16c	-0.0018129773
28	0x3ae45229	0.0017419505
29	0xbb3b2d1a	-0.0028560818
30	0xbb62df75	-0.0034618054
31	0xb8627334	-5.398989e-05
32	0x3b49e753	0.0030808046
33	0xbb4eda95	-0.003156339
34	0xbba5067c	-0.0050361734
35	0x3ab1bde8	0.0013560625
36	0x3aa99f09	0.0012941073
37	0xbb3728c0	-0.0027947873
38	0xbb849e66	-0.004047203
39	0xb9861422	-0.00025573472
40	0x3b7e89c4	0.003883944
41	0xbbe34786	-0.0069360165
42	0xbc0ba553	-0.008523303
43	0xb8e4a4da	-0.00010902593
44	0x3bd46b6d	0.0064825327
45	0xbc2812bb	-0.010258372
46	0xbc4e3331	-0.012585447
47	0x39cf059a	0.0003948629
48	0x3549f111	7.522913e-07
49	0x36a7c32e	4.9997097e-06
50	0x36737e3e	3.6283304e-06
51	0x35cda60b	1.5322015e-06
52	0x3b0abab4	0.0021168413
53	0xbb97dc3e	-0.004634409
54	0xbbb930ac	-0.005651554
55	0xba289464	-0.00064308033
56	0x3926a58a	0.00015892662
57	0xba0ae0e4	-0.00052977935
58	0xba342dea	-0.0006873297
59	0xb937046a	-0.00017453884
60	0xb51ecf27	-5.9161033e-07
61	0x344733ca	1.855216e-07
62	0x34e0fe0f	4.1908103e-07
63	0xb606038c	-1.996962e-06
64	0x3b024162	0.0019875397
65	0xbbde29f0	-0.0067799017
66	0xbbc51b18	-0.0060151927
67	0xbb37b1cf	-0.0028029566
68	0x3bb5da85	0.005549731
69	0xbc18c0f3	-0.009323346
70	0xbc3bc071	-0.011459456
71	0xb6e549b8	-6.833314e-06
72	0x3a33b673	0.0006855495
73	0xbac777a0	-0.0015218146
74	0xbaf8d660	-0.0018984787
75	0xb93f5871	-0.00018248126
76	0x35bb3e78	1.3950767e-06
77	0x365a64f8	3.2543303e-06
78	0x34b05571	3.2844721e-07
79	0xb49c4e38	-2.9114176e-07
80	0x366f2a78	3.5638495e-06
81	0xb79c304d	-1.8619141e-05
82	0xb795966c	-1.783223e-05
83	0xb703edd0	-7.8635785e-06
84	0x39a10a8a	0.00030716165
85	0xba480013	-0.00076294056
86	0xba51c6a6	-0.0008002318
87	0xb9c4ea4d	-0.000375586
88	0x3539c11c	6.919888e-07
89	0xb48644ad	-2.5009413e-07
90	0xb4bb972f	-3.4941465e-07
91	0x3487e69f	2.5313508e-07
92	0x39e359f6	0.0004336384
93	0xba750518	-0.00093467673
94	0xba9c672c	-0.0011932603
95	0xb9210c35	-0.00015358704
96	0x364bd22a	3.0371689e-06
97	0xb5de2bfa	-1.6553088e-06
98	0xb67aa48a	-3.7348677e-06
99	0x34f2fb1d	4.5258722e-07
100	0x35a7ddf8	1.2507071e-06
101	0xb5e19090	-1.680588e-06
102	0xb552cc73	-7.852861e-07
103	0xb5c00550	-1.4306661e-06
104	0x3ae5aaf8	0.0017522266
105	0xbb9babd2	-0.004750707
106	0xbbe30def	-0.0069291512
107	0xbb0f799d	-0.0021892556
108	0x3bf9d430	0.0076241717
109	0xba7bd584	-0.00096067064
110	0xbc0a8264	-0.008453939
111	0x3c0a8208	0.008453853
112	0x39c86816	0.00038224523
113	0xba44c55a	-0.00075062143
114	0xba985c16	-0.0011624123
115	0xb8224489	-3.8687638e-05
116	0xb5988ecd	-1.1366443e-06
117	0x36ba8258	5.558406e-06
118	0x368972f5	4.096301e-06
119	0x36aba440	5.1153183e-06
120	0x3a15b84c	0.00057113613
121	0xba252446	-0.00062996557
122	0xbab16eb9	-0.0013537026
123	0x39f0fbf2	0.0004596408
124	0x359fd442	1.1908198e-06
125	0xb54c19a2	-7.603322e-07
126	0xb683cd3f	-3.927998e-06
127	0xb6747076	-3.6424294e-06
128	0x351acdd7	5.7669007e-07
129	0x36b95051	5.5227797e-06
130	0x364cc4a4	3.0512829e-06
131	0x366bf26a	3.5158832e-06
132	0x3b6bc8f2	0.0035977927
133	0xba49b2f3	-0.0007694207
134	0xbb8cf85a	-0.0043020668
135	0x3b55749a	0.003257072
136	0x385bff2b	5.2451313e-05
137	0xb9522848	-0.00020042167
138	0xb942cc80	-0.00018577464
139	0xb92848a5	-0.0001604879
140	0x39cc8252	0.00039007008
141	0xb97dcc49	-0.00024204062
142	0xba8469dc	-0.0010102349
143	0x39639fe2	0.00021707968
144	0x35277c55	6.2393275e-07
145	0x36655978	3.4175737e-06
146	0x3642da03	2.9035152e-06
147	0x35fe3e83	1.8942668e-06
148	0x377e2d86	1.5150179e-05
149	0xb7c8627a	-2.3887715e-05
150	0xb830743e	-4.206993e-05
151	0xb862b12f	-5.4047614e-05
152	0x36828307	3.8895555e-06
153	0xb6b46d64	-5.377153e-06
154	0xb790097c	-1.7170554e-05
155	0xb6ae0205	-5.185839e-06
156	0x3b3c5fb4	0.0028743567
157	0xbae0e082	-0.0017156752
158	0xbb8b1f69	-0.0042456877
159	0x3b0c504a	0.002141016
160	0x3a73a2a6	0.0009293951
161	0xba7b2bef	-0.0009581437
162	0xbad1ea5e	-0.0016015281
163	0x38e00a69	0.000106830914
164	0x3a18c1b7	0.00058272056
165	0xba5f6edd	-0.0008523295
166	0xba9779b9	-0.0011556662
167	0x3915532b	0.0001424073
168	0x3ad6c4bd	0.0016385537
169	0xb9128175	-0.00013971872
170	0xbae95eb1	-0.001780471
171	0x3afe03e5	0.0019379823
172	0x38b05b27	8.4093124e-05
173	0xb93fc217	-0.00018287484
174	0xb98721be	-0.00025774346
175	0xb8b40833	-8.584596e-05
176	0x3a8f40d5	0.0010929356
177	0xbabcc410	-0.0014401693
178	0xbb07172f	-0.0020613184
179	0x390270fe	0.00012439859
180	0x3b1c1683	0.002381713
181	0xbb05ab19	-0.0020396172
182	0xbba60686	-0.0050666956
183	0x3ae75ca7	0.0017651514
184	0x34bad66e	3.4801218e-07
185	0xb588589f	-1.0158582e-06
186	0xb606176c	-1.998119e-06
187	0x34e5f142	4.2830112e-07
188	0x3b002f74	0.0019559534
189	0xb995aa7e	-0.0002854652
190	0xbb26b284	-0.0025435993
191	0x3b015beb	0.0019738625
192	0x380192ca	3.0892705e-05
193	0xb8867aa0	-6.4124586e-05
194	0xb89fc486	-7.618316e-05
195	0xb80afd31	-3.3137567e-05
196	0x3579f071	9.3109617e-07
197	0xb6d43d94	-6.325261e-06
198	0xb70c09b0	-8.346906e-06
199	0xb6e01869	-6.678562e-06
200	0x3919d0aa	0.0001466895
201	0xba366529	-0.0006957823
202	0xba23fa16	-0.0006255222
203	0xb9fa93c5	-0.00047793813
204	0x3c12f5e6	0.00896976
205	0xbc5eeda6	-0.0136064645
206	0xbc94aeef	-0.018149821
207	0x3aacff50	0.0013198648
208	0x3ae13495	0.0017181808
209	0xbb33b0ca	-0.0027418607
210	0xbb676063	-0.0035305254
211	0x39358c06	0.00017313668
212	0x359b6f6f	1.1580831e-06
213	0x36ce0bba	6.1406436e-06
214	0x365b1ddf	3.265093e-06
215	0x3661cf76	3.364837e-06
216	0x3aafff1b	0.0013427468
217	0xbb039ad0	-0.002008129
218	0xbb323277	-0.0027190724
219	0x398cc189	0.00026847076
220	0x360e7910	2.1230117e-06
221	0xb6e337e4	-6.7716337e-06
222	0xb722bc22	-9.6997555e-06
223	0xb72980db	-1.01031865e-05
224	0xb63e4cc5	-2.8356892e-06
225	0xb4f63cd4	-4.586533e-07
226	0x36a4b565	4.908698e-06
227	0xb6cba368	-6.0688944e-06

exp_avg_sq f4 [57, 4]
0	0x35dfd5d9	1.6677033e-06
1	0x36c1e6c0	5.778711e-06
2	0x3717311f	9.011738e-06
3	0x3515aab0	5.575521e-07
4	0x3427ddce	1.5633779e-07
5	0x341a815c	1.4389428e-07
6	0x3558d014	8.0769064e-07
7	0x346eb351	2.2230712e-07
8	0x315e450e	3.2344505e-09
9	0x330c2ae0	3.2635285e-08
10	0x3300e824	3.0013453e-08
11	0x32595653	1.265069e-08
12	0x2bd13d4e	1.4867359e-12
13	0x2be5f910	1.6340557e-12
14	0x2ccadb2d	5.7655187e-12
15	0x2db56241	2.0620951e-11
16	0x3489b625	2.5650766e-07
17	0x350c5205	5.227342e-07
18	0x358b92c5	1.0399023e-06
19	0x34218509	1.5042691e-07
20	0x317086db	3.5001253e-09
21	0x3326311f	3.8694562e-08
22	0x33183567	3.5438827e-08
23	0x32a4cf92	1.9186505e-08
24	0x35b88029	1.3746368e-06
25	0x36f84d0a	7.3999445e-06
26	0x37988c72	1.8185212e-05
27	0x369cd200	4.6736095e-06
28	0x34c42da0	3.6541041e-07
29	0x35bb8305	1.3970717e-06
30	0x35daa634	1.6290637e-06
31	0x33e175e7	1.0498825e-07
32	0x3551f589	7.821587e-07
33	0x3519808b	5.7183996e-07
34	0x35f6fa14	1.8401211e-06
35	0x35405aa9	7.16575e-07
36	0x34717b81	2.2489805e-07
37	0x352ee058	6.5146514e-07
38	0x35d2d65f	1.570861e-06
39	0x34493397	1.8738352e-07
40	0x35f4cb86	1.823865e-06
41	0x36651d87	3.4140846e-06
42	0x36cf14f7	6.1715214e-06
43	0x35a1c79c	1.2053529e-06
44	0x3695630d	4.452077e-06
45	0x3718e0b4	9.112224e-06
46	0x376a63ee	1.3970754e-05
47	0x36388bda	2.749954e-06
48	0x2c382455	2.616814e-12
49	0x2dac29c0	1.9572677e-11
50	0x2dd63ec6	2.435686e-11
51	0x2e5407db	4.8210196e-11
52	0x3541545a	7.202085e-07
53	0x361e2907	2.3567716e-06
54	0x3688329c	4.0590076e-06
55	0x34bb1b73	3.4851436e-07
56	0x32869dec	1.5671468e-08
57	0x340c0ef8	1.3043962e-07
58	0x346342ba	2.1165297e-07
59	0x335b6649	5.108294e-08
60	0x2bf67b96	1.7513653e-12
61	0x2d011586	7.33758e-12
62	0x2d6cf56f	1.3469544e-11
63	0x2ca4c5cb	4.6831198e-12
64	0x34c1735f	3.6032995e-07
65	0x3753e8cd	1.2630783e-05
66	0x36c5c25e	5.893685e-06
67	0x363009c4	2.6231728e-06
68	0x3646c56a	2.961921e-06
69	0x37079227	8.080656e-06
70	0x373ed33a	1.13740625e-05
71	0x3530e996	6.590502e-07
72	0x33da2bdb	1.0159393e-07
73	0x34a9628a	3.15504e-07
74	0x350f3f78	5.336401e-07
75	0x330405e8	3.0739017e-08
76	0x2c81c1ee	3.687931e-12
77	0x2e1566aa	3.396986e-11
78	0x2de512da	2.6042658e-11
79	0x2e61b751	5.1321895e-11
80	0x2e7f6611	5.807094e-11
81	0x30181cb9	5.5338095e-10
82	0x30010ecb	4.695095e-10
83	0x2f12beff	1.3346478e-10
84	0x35254760	6.1571154e-07
85	0x351e6557	5.9007056e-07
86	0x35c52de2	1.4690997e-06
87	0x351f1582	5.9263414e-07
88	0x2b7354bc	8.6448535e-13
89	0x2c70ed8a	3.4237912e-12
90	0x2d005603	7.295056e-12
91	0x2d969f64	1.712381e-11
92	0x33043673	3.0783166e-08
93	0x343181f9	1.6531693e-07
94	0x3462d637	2.1125821e-07
95	0x3345fa97	4.6095547e-08
96	0x2d5bdf2e	1.2498265e-11
97	0x2d266920	9.45935e-12
98	0x2dc269e9	2.210228e-11
99	0x2e0bf18b	3.1819474e-11
100	0x2abd2eb0	3.360554e-13
101	0x2d64ac38	1.299854e-11
102	0x2d0da7ee	8.05221e-12
103	0x2d1449dd	8.429227e-12
104	0x34c4ae1b	3.6634523e-07
105	0x36506609	3.1053808e-06
106	0x3715f877	8.938942e-06
107	0x36a4aa61	4.9074156e-06
108	0x36c9089f	5.9912704e-06
109	0x35006b4f	4.783987e-07
110	0x3708871e	8.137691e-06
111	0x36d39e8e	6.306748e-06
112	0x32dc44e2	2.5642695e-08
113	0x33dc02ed	1.02450805e-07
114	0x347b2250	2.338868e-07
115	0x32f79b9e	2.8825351e-08
116	0x2d8fc13d	1.6343033e-11
117	0x2d2e08b6	9.892689e-12
118	0x2cac23bf	4.8925026e-12
119	0x2e0a2a5c	3.141519e-11
120	0x33992306	7.1309884e-08
121	0x33257abd	3.8528686e-08
122	0x3490b3f4	2.6953023e-07
123	0x33aaad29	7.9477395e-08
124	0x2c8cb494	3.9990875e-12
125	0x2d9c5506	1.7772905e-11
126	0x2d90f6b0	1.6480456e-11
127	0x2e144ff0	3.3722303e-11
128	0x2d00b93c	7.317088e-12
129	0x2d6fde4c	1.3634937e-11
130	0x2d7a75fd	1.4237053e-11
131	0x2e763574	5.59814e-11
132	0x35db23c6	1.6327183e-06
133	0x342c79b6	1.6063026e-07
134	0x36688807	3.4649872e-06
135	0x35d207c0	1.5648475e-06
136	0x31003fb2	1.8662658e-09
137	0x32d5f006	2.4905614e-08
138	0x32e2e529	2.6414073e-08
139	0x32c66d51	2.3099945e-08
140	0x33866e7e	6.25996e-08
141	0x320fa4bd	8.361153e-09
142	0x35116153	5.4158335e-07
143	0x34c888fd	3.7352575e-07
144	0x2b07d12d	4.8251924e-13
145	0x2d8b2870	1.5820428e-11
146	0x2d9a813d	1.7565166e-11
147	0x2dbe6022	2.164319e-11
148	0x32b1ba71	2.0690296e-08
149	0x31e5622f	6.6759394e-09
150	0x33b5b56c	8.46147e-08
151	0x3407684e	1.26108e-07
152	0x3000ea9e	4.689954e-10
153	0x2dbad6dd	2.124117e-11
154	0x30233d1e	5.938591e-10
155	0x30c5c773	1.4390323e-09
156	0x3590b801	1.0782388e-06
157	0x3487b6c3	2.5278686e-07
158	0x36187e9b	2.272346e-06
159	0x35789279	9.2600345e-07
160	0x3495b4ef	2.788506e-07
161	0x34cf7f95	3.8649583e-07
162	0x359c6aea	1.1654022e-06
163	0x343ce871	1.7593426e-07
164	0x33af623b	8.1669405e-08
165	0x33811188	6.0102195e-08
166	0x33fdd1d6	1.18193995e-07
167	0x33c27944	9.055887e-08
168	0x34efc8e8	4.4663398e-07
169	0x32ee6478	2.7752534e-08
170	0x3513bd3f	5.5037157e-07
171	0x3527170e	6.2245897e-07
172	0x312a56b2	2.4787536e-09
173	0x31e92c79	6.7862485e-09
174	0x33184480	3.5452558e-08
175	0x330c8376	3.2715853e-08
176	0x351e8e10	5.9066315e-07
177	0x35325631	6.643559e-07
178	0x35d6e2e0	1.6010272e-06
179	0x34df1074	4.1548958e-07
180	0x354b91c8	7.583553e-07
181	0x34ba029f	3.4647107e-07
182	0x36404e25	2.8655716e-06
183	0x359afd3f	1.1547598e-06
184	0x2d242add	9.331838e-12
185	0x2b1d2b24	5.5837474e-13
186	0x2c77a193	3.5190503e-12
187	0x2e5d4c4b	5.0317344e-11
188	0x34c23dd4	3.6180302e-07
189	0x3304e126	3.0938416e-08
190	0x3591885f	1.0843031e-06
191	0x34f67e2c	4.5912873e-07
192	0x2fb4cca0	3.2887204e-10
193	0x319d834e	4.584229e-09
194	0x3185879b	3.886226e-09
195	0x313e9d6f	2.773813e-09
196	0x2d8ff9cc	1.636815e-11
197	0x2def6755	2.7217043e-11
198	0x2dbf7c2b	2.1769328e-11
199	0x2e6833be	5.279665e-11
200	0x3250dfc0	1.2158068e-08
201	0x33884c7f	6.346908e-08
202	0x33afd12c	8.187121e-08
203	0x335dba02	5.1624745e-08
204	0x36c393ca	5.828658e-06
205	0x36d56fe3	6.36092e-06
206	0x377d9100	1.5113736e-05
207	0x3686f717	4.0222762e-06
208	0x3534fbd0	6.742166e-07
209	0x364ee2db	3.082844e-06
210	0x364f4b42	3.088921e-06
211	0x34dd8350	4.126e-07
212	0x2af22e66	4.302003e-13
213	0x2e06d592	3.065776e-11
214	0x2dce6d74	2.3468096e-11
215	0x2e09fd9b	3.137544e-11
216	0x34a79c39	3.121984e-07
217	0x35b9951d	1.3826972e-06
218	0x35cad0ef	1.511098e-06
219	0x3429fa2a	1.583036e-07
220	0x2ef9a62f	1.1352729e-10
221	0x30930595	1.0697244e-09
222	0x30b727ab	1.3326277e-09
223	0x30ec3baa	1.7188218e-09
224	0x2cc9e5b1	5.7382645e-12
225	0x2ba284a7	1.1547611e-12
226	0x2dac36d2	1.9578481e-11
227	0x2ddbd515	2.4992045e-11

exp_avg f4 [4, 11]
0	0x3bd75804	0.0065717716
1	0x3d3a9baa	0.04555861
2	0xbbb47bbf	-0.0055079157
3	0x33d92f8f	1.0113501e-07
4	0xbc9cc438	-0.019136533
5	0x3de08a9e	0.10963939
6	0xbcb1ff2f	-0.021728126
7	0xbd44937c	-0.047992215
8	0x3d280407	0.041019466
9	0x3c3203f0	0.010865197
10	0xbd43161c	-0.047628507
11	0xbca50508	-0.020144
12	0xbe562dfc	-0.20915979
13	0x3d5257ff	0.05135345
14	0xb19c233d	-4.5442037e-09
15	0x3d8b5b9a	0.06804581
16	0xbeb6058b	-0.35551104
17	0xbd62799b	-0.055291753
18	0x3cff26d1	0.031146439
19	0x3cef815a	0.029236484
20	0xbdbf4d3c	-0.09340903
21	0x3c77dfe2	0.015129061
22	0x3c0bab9d	0.0085248025
23	0xbe55d30a	-0.20881286
24	0x3d0c46ef	0.034247335
25	0xb2a1e66e	-1.8847654e-08
26	0x3d85de11	0.065364964
27	0xbeaa3ce6	-0.33249587
28	0xbd6fbb94	-0.058528498
29	0x3dac6c6a	0.08419116
30	0xbd365cc7	-0.044522073
31	0xbe17bbba	-0.14817706
32	0xbdb6c18d	-0.08923636
33	0xbc68f94a	-0.014219591
34	0x3d01e722	0.031714566
35	0xbc8af6fe	-0.016963478
36	0xb3900b89	-6.707621e-08
37	0xbc130ab5	-0.008974721
38	0x3cf92133	0.030411338
39	0xbcc75778	-0.0243337
40	0x3c2be94a	0.010492632
41	0x3bf5aade	0.0074971756
42	0xbbbd49b1	-0.005776607
43	0xbd196a0d	-0.037454654

exp_avg_sq f4 [4, 11]
0	0x3b0c44bd	0.0021403276
1	0x3b7d8022	0.003868111
2	0x3ab1dbac	0.0013569496
3	0x2726e542	2.3161409e-15
4	0x3a06f5d4	0.00051483256
5	0x3cadc382	0.02121139
6	0x398544c6	0.00025418977
7	0x3ad4afae	0.0016226673
8	0x3a0f68fa	0.000547066
9	0x3a84554e	0.0010096224
10	0x3ad7bdc3	0.0016459752
11	0x3b408be3	0.0029380254
12	0x3c0f1dee	0.008735163
13	0x3b035edd	0.0020045557
14	0x24e35aa4	9.859911e-17
15	0x3a64e099	0.00087309774
16	0x3cf9775a	0.03045242
17	0x39f744b2	0.00047162693
18	0x399b5ef1	0.0002963464
19	0x39509e10	0.00019895309
20	0x3ae9924d	0.001782009
21	0x3a291c00	0.00064510107
22	0x3a00033a	0.00048832933
23	0x3b9b6950	0.004742779
24	0x3a155e21	0.0005697925
25	0x25acb4b5	2.9959696e-16
26	0x39c0809c	0.00036716915
27	0x3c1be764	0.009515617
28	0x39ae1589	0.0003320391
29	0x39d14246	0.00039912964
30	0x3aa7cd6e	0.0012802312
31	0x3af2d8ee	0.0018527785
32	0x3a61012c	0.00085832435
33	0x394527ee	0.00018802259
34	0x3a690756	0.0008889338
35	0x398844db	0.00025991243
36	0x26ba9765	1.2947378e-15
37	0x389623f4	7.159254e-05
38	0x3ae16db6	0.0017198834
39	0x39dde8cd	0.00042325855
40	0x3949ce8f	0.00019245803
41	0x38187129	3.6345013e-05
42	0x388db543	6.7571666e-05
43	0x3a8b5601	0.001063049

exp_avg f4 [4]
0	0x3daaa3c1	0.08332015
1	0xbe927fc3	-0.286131
2	0xbe913786	-0.28362674
3	0x3d214ed4	0.039381817

exp_avg_sq f4 [4]
0	0x3c118619	0.008882069
1	0x3c7549e5	0.014971231
2	0x3beb385b	0.007178349
3	0x3aa081f0	0.0012245756

exp_avg f4 [12, 4]
0	0x3af24a3f	0.0018485262
1	0x3c9c1af3	0.01905582
2	0x3bf9f89e	0.0076285144
3	0x3b277ec4	0.0025557736
4	0xbae12ad1	-0.0017178898
5	0xbc9ce16d	-0.01915046
6	0xbbdb172b	-0.0066861114
7	0xbb8d9b62	-0.0043215016
8	0xbacbfb5e	-0.0015562584
9	0xbc8fc270	-0.01754877
10	0xbc054112	-0.00813319
11	0xbb198296	-0.0023423783
12	0xbb7e454d	-0.003879863
13	0xbd385a4a	-0.04500798
14	0xbc5c986b	-0.013464074
15	0xbbe51f13	-0.0069922297
16	0xb674b5c4	-3.6464635e-06
17	0x3bbedc33	0.0058245896
18	0x3b0670aa	0.002051393
19	0x3a67d348	0.0008843434
20	0x37e05975	2.6744538e-05
21	0x3b8765aa	0.0041319923
22	0x3b00773e	0.0019602324
23	0x3aaa68af	0.0013001169
24	0x36baa055	5.561897e-06
25	0x399eb461	0.000302705
26	0xb741afdf	-1.1544645e-05
27	0x3718d6c2	9.109908e-06
28	0x3a1849b1	0.0005809321
29	0x3bc012cb	0.0058616153
30	0x3b3a06f8	0.0028385501
31	0x3ad6e23b	0.0016394326
32	0xbd399833	-0.045311164
33	0xbefa016d	-0.48829213
34	0xbe341dae	-0.17589447
35	0xbd93df8a	-0.07220371
36	0x3cde4a90	0.027135164
37	0x3ea14f4f	0.3150582
38	0x3dbc032f	0.09180295
39	0x3d5f7540	0.054555178
40	0xbba6870f	-0.005082018
41	0xbd69e602	-0.05710412
42	0xbccfc27a	-0.025361288
43	0xbc08f94c	-0.008360218
44	0x3cbe86a8	0.023257568
45	0x3e84d586	0.25944155
46	0x3d8a7ac4	0.06761697
47	0x3d2662c1	0.040621523

exp_avg_sq f4 [12, 4]
0	0x36bb4646	5.581215e-06
1	0x388a686a	6.5998014e-05
2	0x369989b9	4.5757884e-06
3	0x36bdc0f2	5.6551007e-06
4	0x376b68f9	1.4031532e-05
5	0x38d3c65e	0.00010098213
6	0x36befe5b	5.692052e-06
7	0x379ae8a7	1.8466568e-05
8	0x36ad502c	5.165135e-06
9	0x3857976e	5.1401024e-05
10	0x368b6d08	4.1552157e-06
11	0x3608ef3c	2.0404832e-06
12	0x3770e8c6	1.43593115e-05
13	0x39a532e0	0.00031509157
14	0x3756cde8	1.2803335e-05
15	0x37a08abc	1.913809e-05
16	0x3376bf8c	5.745055e-08
17	0x36ae37a0	5.1920797e-06
18	0x34701564	2.2359524e-07
19	0x34717836	2.2488607e-07
20	0x34bf3eb7	3.5622153e-07
21	0x36b913cb	5.515734e-06
22	0x3509ee08	5.138286e-07
23	0x3581125a	9.61659e-07
24	0x3315f5f7	3.491547e-08
25	0x347a3d01	2.3305257e-07
26	0x328d7155	1.6466098e-08
27	0x329320ec	1.7128023e-08
28	0x34043ccf	1.231558e-07
29	0x367d4761	3.7741486e-06
30	0x352ffc40	6.555965e-07
31	0x34d8bf26	4.0372214e-07
32	0x3af9816d	0.0019035764
33	0x3cdbe706	0.026843559
34	0x3ac82d62	0.0015272314
35	0x3af79347	0.0018888497
36	0x3b7ceb41	0.003859237
37	0x3d24a53f	0.040196653
38	0x3a8f6732	0.0010940789
39	0x3b39d345	0.0028354686
40	0x398f21f1	0.00027300374
41	0x3ad9e769	0.0016624752
42	0x389b7059	7.411902e-05
43	0x38c5d77c	9.433829e-05
44	0x3aa10195	0.0012283797
45	0x3c90a5bd	0.017657155
46	0x39de8725	0.0004244383
47	0x3aab5f15	0.0013074601

exp_avg f4 [12, 4]
0	0x3c39b1fa	0.011333937
1	0xbc9393b4	-0.018014766
2	0x3c9dae78	0.019248232
3	0xbc9b23e8	-0.01893802
4	0xbc5afd15	-0.0133660035
5	0x3cb5725d	0.02214926
6	0xbccd966f	-0.025096146
7	0x3cc78b22	0.024358336
8	0xbc302ef2	-0.01075338
9	0x3c8d9449	0.017282622
10	0xbc97f68a	-0.018550176
11	0x3c974fdb	0.018470695
12	0xbcf61ec3	-0.030043965
13	0x3d4162f2	0.047213502
14	0xbd5a9b5d	-0.053370822
15	0x3d4d6108	0.050141364
16	0x3aae8264	0.0013314006
17	0xbb394e2a	-0.002827535
18	0x3b4c7155	0.003119548
19	0xbb54df6f	-0.003248181
20	0x3a4ee66b	0.00078926113
21	0xbad6eeaf	-0.0016398038
22	0x3b0870ef	0.0020819267
23	0xbb083d07	-0.0020788328
24	0x39139944	0.00014076108
25	0xb9bc54fa	-0.00035921467
26	0x39bf1bd5	0.00036451095
27	0xb9e30cf5	-0.00043306468
28	0x3b130183	0.002243132
29	0xbb35ba34	-0.0027729394
30	0x3b4673d2	0.0030281437
31	0xbb145c20	-0.0022637919
32	0xbd9d6697	-0.07685583
33	0x3dfacbd0	0.122459054
34	0xbe0a5960	-0.13510656
35	0x3e05b679	0.13057889
36	0x3e198569	0.14992298
37	0xbe77cbbb	-0.24198811
38	0x3e8cdf26	0.27514
39	0xbe856174	-0.26050913
40	0xbc961afd	-0.018323416
41	0x3cf2a6b9	0.029620515
42	0xbd03fb70	-0.03222221
43	0x3d02c943	0.03193022
44	0x3dee4527	0.116342835
45	0xbe3aef8e	-0.18255445
46	0x3e52a3ad	0.2057025
47	0xbe445725	-0.19173868

exp_avg_sq f4 [12, 4]
0	0x373ead98	1.13653e-05
1	0x3840ed71	4.59975e-05
2	0x384f0673	4.9358652e-05
3	0x383e9959	4.5442346e-05
4	0x37abc8a2	2.0478215e-05
5	0x38c0177f	9.15965e-05
6	0x38db1ac9	0.00010447723
7	0x38d5e7b7	0.00010199792
8	0x37335af0	1.0690404e-05
9	0x382946b3	4.0358584e-05
10	0x38486ac2	4.778314e-05
11	0x3829971d	4.0433475e-05
12	0x38bd7956	9.034823e-05
13	0x39907382	0.0002755188
14	0x39bdd357	0.0003620635
15	0x3990495c	0.00027520477
16	0x345aac04	2.0365411e-07
17	0x35b260cc	1.3290205e-06
18	0x35a523ac	1.230384e-06
19	0x35d76bec	1.6050158e-06
20	0x357bd7c4	9.3818767e-07
21	0x3649f29c	3.0092551e-06
22	0x3678d6f5	3.7080001e-06
23	0x36316f4f	2.6439845e-06
24	0x329a5352	1.796585e-08
25	0x33cd365b	9.5559436e-08
26	0x33a9d635	7.90864e-08
27	0x3406650a	1.251648e-07
28	0x34ea6535	4.3659534e-07
29	0x3594f410	1.1097891e-06
30	0x359ea96b	1.1821224e-06
31	0x3580c5d9	9.594324e-07
32	0x3a0e040c	0.0005417473
33	0x3b0837a9	0.002078513
34	0x3b24567f	0.002507597
35	0x3b06d9cb	0.0020576592
36	0x3b873885	0.0041266107
37	0x3c711c11	0.014716164
38	0x3c9f968e	0.01948097
39	0x3c6b99eb	0.014379959
40	0x3878c3e0	5.931023e-05
41	0x397a9162	0.00023896017
42	0x39a25e3f	0.00030969267
43	0x39719082	0.00023037384
44	0x3ad630e9	0.0016341481
45	0x3bb3de43	0.005489142
46	0x3be4a45f	0.0069776024
47	0x3bab8d0a	0.005235319

exp_avg f4 [12]
0	0x3ccfa78c	0.025348447
1	0xbd0a51b5	-0.03376933
2	0xbcc6c5c1	-0.024264218
3	0xbd932baf	-0.07186066
4	0x3b98aa41	0.0046589677
5	0x3b449a6b	0.0029999267
6	0x39997f18	0.00029277126
7	0x3baddfc2	0.005306215
8	0xbf29947e	-0.66242206
9	0x3eff8634	0.49907076
10	0xbda80f1d	-0.08206008
11	0x3ec6662d	0.3874983

exp_avg_sq f4 [12]
0	0x3932fb6a	0.00017069062
1	0x39c4ccc2	0.0003753659
2	0x391631cf	0.0001432367
3	0x3a85d8ae	0.001021167
4	0x369739d1	4.5068814e-06
5	0x3727a43c	9.9922145e-06
6	0x348d8e62	2.6366894e-07
7	0x368d42f1	4.2099205e-06
8	0x3d92772c	0.071516365
9	0x3e14a8e5	0.14517553
10	0x3bb05757	0.0053815055
11	0x3d62118e	0.055192523

exp_avg f4 [12]
0	0x3ccfa843	0.025348788
1	0xbd0a5238	-0.033769816
2	0xbcc6c6eb	-0.024264773
3	0xbd932b7f	-0.071860306
4	0x3b98a8b6	0.004658784
5	0x3b449bfd	0.0030000203
6	0x39992775	0.00029211832
7	0x3bade0b2	0.005306327
8	0xbe37bfac	-0.17944211
9	0x3ebaa2f4	0.36452448
10	0xbd2cbe5e	-0.042173736
11	0x3e8d50e8	0.2760079

exp_avg_sq f4 [12]
0	0x3932fc28	0.00017069338
1	0x39c4cd8a	0.00037537172
2	0x391632e5	0.00014324074
3	0x3a85d86e	0.0010211596
4	0x3697382c	4.50669e-06
5	0x3727a447	9.9922245e-06
6	0x348d8cbd	2.6365697e-07
7	0x368d4361	4.2099714e-06
8	0x3c10ce97	0.008838317
9	0x3d7ce039	0.061737273
10	0x3a8b9ee6	0.0010652214
11	0x3cb2a1ef	0.021805732

exp_avg f4 [12, 1]
0	0xb490a0bf	-2.6939048e-07
1	0x333aef92	4.3524388e-08
2	0xb410218a	-1.3423247e-07
3	0xb32b3150	-3.985889e-08
4	0x3497652f	2.8199563e-07
5	0x348bbff8	2.6030443e-07
6	0xb32679cf	-3.876067e-08
7	0x3485de78	2.4935048e-07
8	0xb36c4c88	-5.5017637e-08
9	0x341d9afe	1.467815e-07
10	0x341aaca9	1.4405181e-07
11	0x34b31311	3.335522e-07

exp_avg_sq f4 [12, 1]
0	0x284a4a76	1.1229399e-14
1	0x26562dce	7.430824e-16
2	0x27805305	3.5617147e-15
3	0x2640b45c	6.6857814e-16
4	0x285af9e1	1.2155615e-14
5	0x283eaa7a	1.0584085e-14
6	0x263a7100	6.4684857e-16
7	0x28311962	9.830978e-15
8	0x268f9c4a	9.96498e-16
9	0x2793af72	4.0990914e-15
10	0x278f5d35	3.979153e-15
11	0x2892fc24	1.6318605e-14

exp_avg f4 [12, 4]
0	0xbb392100	-0.002824843
1	0x3b3624ea	0.0027792999
2	0xbbcae805	-0.0061922097
3	0x3b2b57fe	0.0026144977
4	0xbc7634a5	-0.0150272
5	0x3cf38065	0.02972431
6	0xbc86926b	-0.01642724
7	0x3d063621	0.032766465
8	0x3b8c15f3	0.0042750775
9	0xbc254d5d	-0.010089246
10	0x3b8066d5	0.0039185085
11	0xbc3e1697	-0.0116020655
12	0xbd882c1a	-0.06649037
13	0x3deafd03	0.114740394
14	0xbdb30e32	-0.08742942
15	0x3dfcf460	0.12351298
16	0xbdade61e	-0.08491157
17	0x3e12f56d	0.14351435
18	0xbde33543	-0.11094143
19	0x3e1c7b13	0.15281324
20	0xbe0fd062	-0.14044335
21	0x3e7e5eca	0.24840847
22	0xbe407654	-0.18795139
23	0x3e88eae4	0.26741707
24	0xbda55ba2	-0.08074118
25	0x3e188923	0.14896064
26	0xbdd4c7bf	-0.10389661
27	0x3e276660	0.16347647
28	0xbd4d61d3	-0.05014212
29	0x3db4f030	0.08834875
30	0xbd81a733	-0.06330719
31	0x3dc420b0	0.09576547
32	0xbdf76013	-0.120788716
33	0x3e5e35ad	0.21700163
34	0xbe19962c	-0.14998692
35	0x3e7102c0	0.23536205
36	0x3e101c84	0.14073378
37	0xbe8c2486	-0.27371615
38	0x3e238ef5	0.15972503
39	0xbe9a8614	-0.30180418
40	0xbdac3f33	-0.08410492
41	0x3e33fe92	0.1757758
42	0xbda2e983	-0.07954695
43	0x3e4803e5	0.19532736
44	0x3e5d3562	0.21602395
45	0xbec0e37f	-0.37673566
46	0x3e8df094	0.2772261
47	0xbed06b9f	-0.40707108

exp_avg_sq f4 [12, 4]
0	0x36246ecf	2.4502403e-06
1	0x3714082e	8.823392e-06
2	0x3608c8dd	2.0382497e-06
3	0x37162ecf	8.951595e-06
4	0x37934dc3	1.7559976e-05
5	0x3828f72d	4.028452e-05
6	0x380b3901	3.319327e-05
7	0x3843a58e	4.6645808e-05
8	0x3781176e	1.5388909e-05
9	0x3900eb05	0.00012294583
10	0x38035ea8	3.132099e-05
11	0x3901eb0f	0.00012389965
12	0x39385a12	0.00017581161
13	0x3a2bf0d3	0.0006559018
14	0x39c3632a	0.0003726718
15	0x3a39df3f	0.0007090456
16	0x39c7624a	0.0003802947
17	0x3ad112df	0.0015951059
18	0x3a7f3395	0.00097351643
19	0x3ad3a145	0.0016146085
20	0x3b0e8b67	0.002175057
21	0x3c23670f	0.009973302
22	0x3bd573bf	0.006514042
23	0x3c22814f	0.009918525
24	0x3ac9d04d	0.0015397161
25	0x3bfd0876	0.007721956
26	0x3bba2c03	0.005681516
27	0x3bf68fc9	0.0075244647
28	0x38d0f6e3	9.964199e-05
29	0x39dc4e78	0.00042020134
30	0x39536045	0.00020158391
31	0x39f3a868	0.00046474044
32	0x3a68901c	0.00088715716
33	0x3b9fd9d4	0.004878262
34	0x3accff98	0.0015640138
35	0x3ba6eecf	0.005094386
36	0x3aee97f1	0.0018203241
37	0x3c2ab40f	0.010418906
38	0x3b470e2a	0.0030373433
39	0x3c35c8d1	0.011095242
40	0x3a81e5c9	0.00099104
41	0x3bda000b	0.006652837
42	0x3ad5f3f3	0.0016323313
43	0x3be4bb26	0.0069803176
44	0x3af8b787	0.0018975594
45	0x3bf4ca9a	0.007470441
46	0x3b793127	0.0038023682
47	0x3c053125	0.008129393

exp_avg f4 [12]
0	0x39dcd831	0.00042122745
1	0xbd7b8f93	-0.06141622
2	0x3cdaf7f1	0.026729556
3	0xbe53ef6c	-0.20696801
4	0xbe817bbb	-0.2528971
5	0xbeeb7ea5	-0.4599506
6	0xbe9a0513	-0.30081996
7	0xbe261014	-0.16217071
8	0xbf3a2081	-0.7270585
9	0x3f8da85c	1.1067004
10	0xbf4696b4	-0.77573705
11	0x3f8c1476	1.0943744

exp_avg_sq f4 [12]
0	0x3982142e	0.00024810567
1	0x395cb851	0.00021049498
2	0x3b22f5c3	0.0024865724
3	0x3b64c1ac	0.0034905476
4	0x3c370152	0.011169748
5	0x3d83d9e1	0.064380415
6	0x3d804689	0.062634535
7	0x3b1cff3a	0.0023955838
8	0x3e3541e1	0.17700912
9	0x3f03629a	0.5132233
10	0x3eae27d2	0.34014755
11	0x3e152db5	0.14568217

exp_avg f4 [12]
0	0x39dce4c5	0.00042132117
1	0xbd7b8f25	-0.06141581
2	0x3cdaf9c5	0.026730428
3	0xbe53ef3a	-0.20696726
4	0xbe817bdb	-0.25289807
5	0xbeeb7eb3	-0.459951
6	0xbe9a0506	-0.30081958
7	0xbe261007	-0.16217051
8	0xbed690b5	-0.41907278
9	0x3f15048d	0.5821007
10	0xbed10b32	-0.40828854
11	0x3f3256f9	0.6966396

exp_avg_sq f4 [12]
0	0x39821444	0.0002481063
1	0x395cb79a	0.00021049232
2	0x3b22f62d	0.002486597
3	0x3b64c138	0.0034905206
4	0x3c370194	0.01116981
5	0x3d83d9ec	0.0643805
6	0x3d80467e	0.06263445
7	0x3b1cff20	0.0023955777
8	0x3d89c302	0.06726648
9	0x3e02edcc	0.12786025
10	0x3dbe19a8	0.09282237
11	0x3d40496d	0.046945024

exp_avg f4 [4, 4]
0	0xb4621bac	-2.1057957e-07
1	0xb472f4db	-2.2627084e-07
2	0x33079787	3.156995e-08
3	0xb3e2369b	-1.0533878e-07
4	0xbe29f72a	-0.16598192
5	0xbf2da4d9	-0.6782966
6	0xbf3f6d27	-0.7477593
7	0xbf4a5e51	-0.79050165
8	0xb2aacebe	-1.988462e-08
9	0x34882c89	2.5364378e-07
10	0x32d95249	2.5299544e-08
11	0xae0cd1fb	-3.2018815e-11
12	0xbeb245d7	-0.3481891
13	0x3f381456	0.7190603
14	0xbe3492fd	-0.17634197
15	0x3f4cdc4f	0.80023664

exp_avg_sq f4 [4, 4]
0	0x2805040b	7.38386e-15
1	0x28161e2b	8.333214e-15
2	0x26135f45	5.1129984e-16
3	0x27314cbc	2.4605282e-15
4	0x3ea2dc52	0.31808716
5	0x3d6d761d	0.05797397
6	0x3f4ae720	0.7925892
7	0x3d97fc83	0.0742121
8	0x25b5e65b	3.155459e-16
9	0x28365ba7	1.01229035e-14
10	0x25e80cce	4.0254261e-16
11	0x2207cea2	1.8405302e-18
12	0x3b39232a	0.002824972
13	0x3c3ec68f	0.01164402
14	0x3a7934da	0.00095064717
15	0x3c6b0818	0.014345191

exp_avg f4 [4]
0	0xb495980e	-2.7864047e-07
1	0x4063d084	3.5596018
2	0xb332616e	-4.1532466e-08
3	0xbfdaa945	-1.7082907

exp_avg_sq f4 [4]
0	0x285678b4	1.190556e-14
1	0x411bccdd	9.737515
2	0x264a6673	7.0221673e-16
3	0x3d85eada	0.06538935

exp_avg f4 [2, 4]
0	0xaf15494d	-1.3577513e-10
1	0xbdeea163	-0.11651876
2	0xb4bbc32b	-3.4973468e-07
3	0xbdc52e8c	-0.09628019
4	0xb46aaa98	-2.185501e-07
5	0xc057b21c	-3.370246
6	0xae2c25ef	-3.9141964e-11
7	0xc023dd56	-2.5603843

exp_avg_sq f4 [2, 4]
0	0x239ba8cc	1.6876622e-17
1	0x3d0a57e3	0.03377522
2	0x289fdf57	1.7749404e-14
3	0x393d7f89	0.00018071955
4	0x280d93c3	7.859113e-15
5	0x420e5647	35.584255
6	0x23ef1d0d	2.5924735e-17
7	0x3e0f45ff	0.13991545

exp_avg f4 [2]
0	0xbfdc8e1a	-1.7230866
1	0xc242355b	-48.552105

exp_avg_sq f4 [2]
0	0x3ebf205a	0.3732937
1	0x43c67911	396.94583
