lightning_logs/version_1/checkpoints/epoch=0-step=30.ckpt (torch, 24543 bytes, 45 tensors)

module.location_embedding.weight f4 [57, 4]
0	0x3f70a16c	0.9399631
1	0x3f9b77c6	1.2145927
2	0xbdb71f51	-0.0894152
3	0x3f10efa1	0.56615645
4	0x3ee57e96	0.4482314
5	0x3f01d3e5	0.5071395
6	0x3eb4b4fc	0.3529433
7	0x3f33755c	0.7010095
8	0x3ff53bab	1.9158834
9	0xbeb78b82	-0.35848624
10	0xbea1be2b	-0.315904
11	0x3edd1187	0.43177435
12	0xbe487ad8	-0.19578111
13	0x3eb844a6	0.35989875
14	0x3f9d98e6	1.2312286
15	0xbf795e56	-0.9740957
16	0x40082439	2.1272109
17	0x3f0a3e0e	0.5400094
18	0x3ee575ca	0.44816428
19	0xbed53ae5	-0.41646495
20	0x3f19947b	0.5999219
21	0x3ddd63ea	0.10810073
22	0xbf7bca0c	-0.98355174
23	0x3f11e9bf	0.56997293
24	0x3ed0b8b5	0.4076592
25	0x3f71579d	0.9427431
26	0x3f122e30	0.57101727
27	0xbf2f53cc	-0.6848724
28	0x3f51a701	0.8189545
29	0x3f14befc	0.5810392
30	0x3f3c37a4	0.735224
31	0x3f067bed	0.52532846
32	0xc007bccb	-2.120898
33	0x3f948a23	1.1604656
34	0xbf9e6f21	-1.2377664
35	0xbf7edea6	-0.99558485
36	0x3eb698c8	0.35663438
37	0xbea0b1ce	-0.31385654
38	0xbf4b4efd	-0.794174
39	0x3f825a48	1.0183802
40	0x3f48ab65	0.7838653
41	0xbe951838	-0.2912004
42	0x3f24bb25	0.6434806
43	0x3f1fd619	0.6243606
44	0x4012aa10	2.2916298
45	0xbf93256c	-1.1495795
46	0xbe71bc5a	-0.23607007
47	0xbf117fad	-0.5683544
48	0x3dca4365	0.09876136
49	0xbec57582	-0.38566214
50	0xbf5b4037	-0.8564486
51	0x3dbd9a4d	0.09257946
52	0xbfd16731	-1.6359617
53	0x3ef50fbb	0.47863564
54	0x3f8cb3a5	1.0992323
55	0xbf497919	-0.78700405
56	0xbf057175	-0.52126247
57	0x3e2a83ec	0.16651887
58	0x3dd76305	0.10516933
59	0x3cd8505b	0.026405504
60	0x3fdb21a8	1.7119646
61	0x3fb7bc4b	1.4354337
62	0xbf2085d0	-0.6270418
63	0xbdda04dc	-0.10645458
64	0x3c19236c	0.009346824
65	0xbeb3bf3d	-0.3510684
66	0xbfe097f6	-1.7546375
67	0x3f7863b4	0.97027135
68	0xbf4eea8d	-0.80826646
69	0x3ed4dbe4	0.41574013
70	0x3ed5f8b9	0.41791323
71	0xc01c10b8	-2.4385204
72	0xbf960350	-1.1719761
73	0xbf4d618e	-0.8022698
74	0xbf8202f2	-1.0157149
75	0x3e97a28b	0.29616198
76	0x3eb5e0b9	0.35523012
77	0x400be8f9	2.1860945
78	0x3c96eb86	0.018422853
79	0xbe6d1f97	-0.23156582
80	0x3f15dccc	0.58540034
81	0x3d9f4861	0.07777477
82	0x3f97a75a	1.1847947
83	0x3f1b7a1a	0.6073319
84	0xbe9b4c88	-0.30331826
85	0x3f97cb36	1.185889
86	0xbf0eed3f	-0.5583076
87	0xbfb55e19	-1.4169341
88	0xbbaac28e	-0.005211181
89	0x3fb3f97a	1.4060509
90	0x3edb2ae5	0.42806163
91	0xc0114d19	-2.2703307
92	0xbf579b6d	-0.84221536
93	0x3f40ffa4	0.75390077
94	0xc011fee1	-2.2811816
95	0x3f412e46	0.7546123
96	0x3fa6d412	1.3033469
97	0x3ebcf69b	0.36906895
98	0x3f4f6291	0.81009775
99	0xbde0cb4f	-0.10976278
100	0x3d426f3a	0.047469355
101	0x3fbba2d5	1.4659067
102	0xc000bdfc	-2.0115957
103	0x3efa8e32	0.4893661
104	0x3f21c787	0.6319508
105	0x3eff1e18	0.49827647
106	0xbf0d117e	-0.55104816
107	0xbf676245	-0.9038432
108	0x3e9ae863	0.30255422
109	0xbf435de4	-0.7631514
110	0xbf9cd322	-1.2251933
111	0xbef8f178	-0.48621726
112	0x3f7e10d5	0.99244434
113	0xbf6b79c7	-0.9198269
114	0xbfa97ef6	-1.324187
115	0xbe704e8a	-0.2346746
116	0xbec996f2	-0.39372975
117	0xbfdc5eb2	-1.7216399
118	0x3eebfeed	0.4609293
119	0x400116a6	2.0170074
120	0xbd4acba6	-0.04951062
121	0x3d9fbd08	0.07799727
122	0x3f4586e6	0.77158964
123	0xbedade57	-0.42747757
124	0xbf499720	-0.78746223
125	0x3eca1b0b	0.39473757
126	0xbe302fcc	-0.17205733
127	0xbfad90fa	-1.3559868
128	0xc0095f1c	-2.14643
129	0xbf249a5b	-0.6429803
130	0xbfd31a32	-1.6492369
131	0x3e2675b2	0.16255835
132	0x3e7f6774	0.24941808
133	0xbec600aa	-0.38672382
134	0xbf14fe4a	-0.58200514
135	0x3e98bf81	0.29833606
136	0x3ff73e81	1.931595
137	0xbfa035dd	-1.2516438
138	0x4004f31b	2.077338
139	0xbfcd4543	-1.6036762
140	0xbf7b0cf8	-0.98066664
141	0xbedc734a	-0.4305671
142	0x3fc2edc9	1.5228816
143	0xbf8dfed2	-1.109339
144	0xbd6bc7da	-0.05756364
145	0x3fe9b4c9	1.8258296
146	0xbe710637	-0.23537527
147	0xbf054561	-0.5205899
148	0xbf11ca79	-0.56949574
149	0x3efd70d3	0.4950014
150	0xbde40bf3	-0.11135092
151	0xbf9692cd	-1.176355
152	0xbfcb2ecb	-1.5873655
153	0xbf0e6947	-0.5562939
154	0x3facc7c4	1.3498464
155	0x3e4036ca	0.187709
156	0xbe86f70e	-0.26360363
157	0xbe88585f	-0.26629922
158	0xbfe61c60	-1.7977409
159	0xbefa865f	-0.48930642
160	0xbf4fddbc	-0.81197715
161	0x3efd8a58	0.4951961
162	0x3e0620c5	0.13098438
163	0x3eeadf72	0.458736
164	0xbea770fc	-0.32703388
165	0x3ee56f88	0.44811654
166	0x3f50e926	0.81605756
167	0x3ee14100	0.43994904
168	0x3f307f73	0.6894447
169	0xc0024e96	-2.0360465
170	0xbfb529f8	-1.4153433
171	0xbd35f142	-0.044419535
172	0x3ddf1ab6	0.108937666
173	0x40055299	2.0831664
174	0x3fc05ac7	1.5027703
175	0xbf52ff5e	-0.8242091
176	0x3f99709a	1.1987488
177	0x3eafbd53	0.3432413
178	0x3e526bcd	0.20548935
179	0xbebe01cd	-0.3711075
180	0x3e0d9d02	0.13829425
181	0xbe60ec3d	-0.21965118
182	0xbe992c79	-0.29916742
183	0x3e8869d6	0.26643246
184	0xbe8056e9	-0.25066307
185	0x3f276d4f	0.65401167
186	0xbd621e2a	-0.055204548
187	0xbefa161c	-0.48844993
188	0x3fcf599f	1.6199225
189	0x3f702b44	0.9381602
190	0xbf6c6f12	-0.9235698
191	0x3fd05123	1.6274761
192	0xbfa7b4d6	-1.3102062
193	0xbee78347	-0.45217344
194	0x3dd78fd6	0.105254814
195	0xbdc5ebdf	-0.096641295
196	0x3f5fbc45	0.8739665
197	0x3e066260	0.13123465
198	0x3faf42b7	1.3692235
199	0xbf55e56f	-0.8355321
200	0x3f096744	0.53673196
201	0xbef208fd	-0.47272483
202	0xbe968cbf	-0.29404256
203	0x3f80b463	1.005505
204	0xbac8805a	-0.0015297041
205	0xbf6eb923	-0.93251246
206	0xbf552997	-0.83266586
207	0xbf57af85	-0.84252197
208	0xbf10223e	-0.5630225
209	0x3dac2cc2	0.084069744
210	0x3f801d8d	1.0009018
211	0x3f0a93f3	0.54132
212	0xbef480bd	-0.4775447
213	0x4012241d	2.2834542
214	0xbe336aed	-0.17521258
215	0xbf683efa	-0.90721095
216	0xbf9bc373	-1.2169021
217	0xbf767230	-0.96267986
218	0x3f3ff1a5	0.74978095
219	0xbf45a95a	-0.77211535
220	0xbf7eac6d	-0.9948185
221	0x3f889cd6	1.0672863
222	0x3ebddaf0	0.370811
223	0xbe9cbe2e	-0.30613846
224	0xbfdeaa87	-1.7395791
225	0x3f6f4647	0.9346661
226	0xbd871186	-0.06595139
227	0x3ed68d17	0.41904518

module.preprocess.weight f4 [4, 11]
0	0x3db9f47b	0.09079834
1	0x3e1ed415	0.1551059
2	0x3daba535	0.0838112
3	0x3b4a874d	0.00309034
4	0x3dc205b0	0.09473741
5	0xbe87d72e	-0.26531357
6	0xbe041115	-0.12897141
7	0xbdcc5a71	-0.09978188
8	0xbe0c860e	-0.13723013
9	0xbe06b0c9	-0.13153376
10	0xbe5dd05c	-0.21661514
11	0xbdb0bd32	-0.08629836
12	0x3defb3b1	0.11704195
13	0x3c95ed8a	0.018301744
14	0x3e7b04eb	0.24513595
15	0x3e047a18	0.129372
16	0x3e827622	0.25480753
17	0x3e4c2331	0.199353
18	0x3e2089a5	0.15677507
19	0xbe55f83d	-0.20895477
20	0xbc0e50a6	-0.00868622
21	0xbe3a3724	-0.18185097
22	0x3e4da44a	0.20082203
23	0xbe4782b1	-0.19483449
24	0xbd7dac45	-0.061931867
25	0xbe15fa15	-0.1464618
26	0x3d9a6701	0.07539178
27	0xbd99e0d3	-0.07513585
28	0xbe20fd14	-0.15721542
29	0xbe8c1bc4	-0.27364933
30	0x3e246b39	0.16056527
31	0xbc141860	-0.009039015
32	0xbce1fe60	-0.027587116
33	0xbe17a4ab	-0.1480891
34	0x3e1e4adf	0.15458249
35	0x3ce5ae58	0.028037235
36	0xbe3bc38e	-0.18336317
37	0x3dc18923	0.09449985
38	0x3e2ac7a4	0.1667772
39	0x3db168c2	0.08662559
40	0x3e693ce0	0.22777128
41	0x3e80bb12	0.25142723
42	0x3dc08e55	0.09402148
43	0x3cce9ba8	0.025220707

module.preprocess.bias f4 [4]
0	0xbe50e566	-0.20400009
1	0x3deb746a	0.114968136
2	0x3d4bfdee	0.049802713
3	0xbe8b6df2	-0.2723232

module.rnn.weight_ih_l0 f4 [12, 4]
0	0x3e52468d	0.20534725
1	0x3e7ba59a	0.2457489
2	0xbe8c96e7	-0.2745888
3	0xbe48102d	-0.1953742
4	0x3ea643a3	0.32473478
5	0x3dc7207f	0.09722995
6	0xbe924141	-0.2856541
7	0xbe785a6d	-0.24253245
8	0x3e48cbe4	0.19609028
9	0xbe9004b7	-0.28128597
10	0xbe031129	-0.12799515
11	0x3d849d3a	0.06475301
12	0x3ebc5e5c	0.3679074
13	0x3cc17c30	0.023618788
14	0x3e8d01c8	0.2754042
15	0xbee456ae	-0.4459738
16	0xbe9c0597	-0.30473015
17	0xbeb077d2	-0.34466416
18	0xbd815be0	-0.06316352
19	0xbeb5b7d6	-0.35491818
20	0x3e2bc876	0.16775689
21	0xbddef12b	-0.10885843
22	0x3cd8f3c7	0.02648343
23	0x3ee91c01	0.45529178
24	0x3eb99a98	0.36250758
25	0x3ee3af49	0.4446967
26	0xbe1d8387	-0.15382205
27	0xbee400cd	-0.4453186
28	0xbe4c0182	-0.1992245
29	0xbe8ab8f9	-0.27094248
30	0x3d89b51c	0.06723997
31	0x3e7fa293	0.24964361
32	0x3ecaea47	0.39631864
33	0xbeacf8aa	-0.33783466
34	0x3ea6bf99	0.32568052
35	0xbe19e2d4	-0.15027934
36	0xbe014b93	-0.12626486
37	0xbcfc4934	-0.030796625
38	0xbe136d74	-0.14397222
39	0x3df091ea	0.11746581
40	0x3eee3e37	0.4653184
41	0x3dcbdea3	0.09954574
42	0x3e121bee	0.14268467
43	0xbe035f01	-0.1282921
44	0xbe8d0da2	-0.27549464
45	0xbd9a0760	-0.07520938
46	0x3e8d648b	0.2761577
47	0xbed5a6bd	-0.41728774

module.rnn.weight_hh_l0 f4 [12, 4]
0	0xbdcd4e9a	-0.10024758
1	0x3de8603b	0.113464795
2	0x3e86726d	0.26259175
3	0xbee5b643	-0.44865617
4	0x3da323e8	0.07965833
5	0xbe9c12bc	-0.30483043
6	0xbed5f4f7	-0.41788456
7	0x3df2cf7d	0.118559815
8	0xbebf718d	-0.3739132
9	0xbeb01b7f	-0.34395978
10	0x3eba7539	0.3641756
11	0x3e45d8c1	0.19320966
12	0x3ec0093c	0.37507045
13	0xbef98468	-0.4873383
14	0xbdef1a81	-0.11674977
15	0x3ebd4fa6	0.3697483
16	0xbddb4b73	-0.1070775
17	0x3e4643ed	0.19361849
18	0xbe45bd4b	-0.19310491
19	0xbdfc526b	-0.123204075
20	0x3e45fb41	0.19334127
21	0xbe5c896b	-0.21536796
22	0xbd2399bf	-0.039941546
23	0x3d90e9ad	0.0707582
24	0xbea0c241	-0.31398204
25	0x3c5e2035	0.013557483
26	0x3e75137e	0.23933217
27	0xbdd941da	-0.10608263
28	0x3d0fb5ae	0.035085373
29	0xbe7bcccc	-0.24589843
30	0xbea003c4	-0.31252873
31	0xbdb853df	-0.09000372
32	0xbea3231f	-0.31862733
33	0xbdd51f04	-0.104063064
34	0x3dd6f24b	0.104954325
35	0xbe8b0ece	-0.27159733
36	0x3eb3b31a	0.3509758
37	0x3f00803f	0.5019569
38	0x3e761f6a	0.24035421
39	0xbd840036	-0.06445353
40	0x3b8d9332	0.0043205256
41	0x3e59694d	0.21231575
42	0x3edfeb1f	0.4373407
43	0xbef47a3b	-0.47749504
44	0xbe20a73f	-0.156888
45	0x3eff40be	0.49854082
46	0x3eabfbae	0.33590454
47	0x3eb3b6ec	0.35100496

module.rnn.bias_ih_l0 f4 [12]
0	0xbeb20bba	-0.34774572
1	0xbe9b329e	-0.30312055
2	0x3e103926	0.140843
3	0xbeec44f5	-0.4614636
4	0xbe6d53b0	-0.23176455
5	0xbedb7dee	-0.42869514
6	0xbebfaa04	-0.374344
7	0xbe93ea11	-0.28889516
8	0x3e9fa97d	0.31183997
9	0x3ccdd2ca	0.025124926
10	0xbe8e0c0d	-0.2774357
11	0xbeac8c05	-0.33700576

module.rnn.bias_hh_l0 f4 [12]
0	0x3e3fcd7b	0.18730728
1	0x3d9b762b	0.07590898
2	0xbe3db368	-0.1852547
3	0xbe9a7629	-0.30168274
4	0x3df90a43	0.121601604
5	0xbe71e7cb	-0.23623578
6	0xbcaf57ec	-0.02140423
7	0xbec0b26b	-0.37636122
8	0xbe4b06ae	-0.19826767
9	0x3ee0ef4a	0.43932563
10	0x3eda5c49	0.42648533
11	0xbe782361	-0.24232246

module.decoder.weight_ih_l0 f4 [12, 1]
0	0xbc84c5c3	-0.016207581
1	0xbe6fe6f8	-0.23427951
2	0xbed31724	-0.41228592
3	0xbd098573	-0.033574533
4	0xbc988f49	-0.018623011
5	0x3e5b1b39	0.21397103
6	0x3e8eb25d	0.27870455
7	0xbe9f991f	-0.3117151
8	0xbed9179f	-0.42400834
9	0x3b984891	0.0046473225
10	0xbedb4790	-0.42828035
11	0xbe3bb60c	-0.18331164

module.decoder.weight_hh_l0 f4 [12, 4]
0	0x3f05a8fd	0.5221098
1	0xbedb7ea1	-0.42870048
2	0x3ea18901	0.31549838
3	0x3eb52bb8	0.35384917
4	0xbd876006	-0.06610112
5	0xbe08ffa2	-0.13378766
6	0xbcc12bce	-0.023580458
7	0x3e86a667	0.2629883
8	0x3ea782a9	0.32716873
9	0xbde6ae92	-0.112637654
10	0x3ea462d3	0.32106647
11	0x3f026ffd	0.5095213
12	0xbeb69ef7	-0.35668156
13	0xbec76fc1	-0.3895245
14	0xbdd04a5e	-0.101704344
15	0xbf00a293	-0.5024807
16	0xbe797057	-0.2435926
17	0x3f053702	0.5203706
18	0x3d80986b	0.062790714
19	0xbeb2cc7d	-0.34921637
20	0x3e054d83	0.1301785
21	0xbef681f1	-0.48146012
22	0x3ed3850e	0.4131245
23	0xbea683b4	-0.32522357
24	0xbee0d50b	-0.4391254
25	0x3dd1ebf1	0.102500804
26	0x3e9c2da8	0.30503583
27	0x3ed26813	0.41095027
28	0xbd06a6ab	-0.03287379
29	0x3cbbed50	0.022940308
30	0xbe2ff2be	-0.17182443
31	0xbed4dfcb	-0.4157699
32	0xbdac77f3	-0.08421316
33	0xbea008b0	-0.31256628
34	0x3dbad62c	0.09122881
35	0x3ef5cb61	0.48006728
36	0xbeabb879	-0.3353918
37	0xbe99d55f	-0.30045602
38	0x3d288325	0.041140694
39	0x3db552b8	0.08853668
40	0xbe9df13b	-0.30848107
41	0x3e9b29ab	0.30305228
42	0xbea354f4	-0.31900752
43	0x3e35ecb0	0.1776607
44	0xbe6502d8	-0.22364366
45	0x3eb66913	0.3562704
46	0x3e95ed6e	0.29282707
47	0xbeac05eb	-0.33598265

module.decoder.bias_ih_l0 f4 [12]
0	0xbd91226b	-0.07086643
1	0xbee3f015	-0.44519106
2	0x3e8a5aac	0.27022302
3	0x3d96b3f9	0.07358546
4	0x3ef7fc73	0.4843479
5	0xbe582b97	-0.21110378
6	0xbe086bb7	-0.1332234
7	0x3e4df5e8	0.20113337
8	0x3dfa3d04	0.12218669
9	0x3ed03583	0.40665826
10	0xbdfbe738	-0.12299961
11	0xbc9dfa61	-0.019284429

module.decoder.bias_hh_l0 f4 [12]
0	0xbcdb5478	-0.026773676
1	0x3e24d149	0.16095461
2	0x3eef8b1e	0.46785825
3	0x3e37bcbe	0.17943093
4	0xbd27b9b2	-0.040948577
5	0xbe270fff	-0.16314696
6	0x3da38b14	0.079855114
7	0xbc98f28d	-0.018670345
8	0x3e0bb2c6	0.13642415
9	0x3d1cadc6	0.03825166
10	0x3e53d930	0.20688319
11	0x3ebea4f5	0.37235227

module.output_decoder.weight f4 [4, 4]
0	0x3e97d9f2	0.29658467
1	0x3e085eeb	0.13317458
2	0xbd7d6e71	-0.061872903
3	0x3e68774e	0.22701761
4	0xbe8526f1	-0.26006272
5	0x3e29f787	0.1659833
6	0x3cc1945d	0.023630315
7	0x3e3b1137	0.18268286
8	0xbeec7b30	-0.46187735
9	0xbca9ec2b	-0.020742496
10	0x3d68e807	0.056861904
11	0x3ee7df50	0.4528756
12	0x3dc1dda8	0.09466106
13	0x3e7da140	0.24768543
14	0x3e9749d8	0.29548526
15	0x3e882a70	0.26594877

module.output_decoder.bias f4 [4]
0	0x3dbf8697	0.09351843
1	0x3da972d3	0.08273854
2	0xbece6c38	-0.4031694
3	0xbd43e24f	-0.047823247

module.ouput_layer.weight f4 [2, 4]
0	0x3dbb0969	0.09132654
1	0xbebde836	-0.37091225
2	0xbe86877b	-0.26275238
3	0xbe2fb62c	-0.17159337
4	0x3eae0ca2	0.33994013
5	0x3ed22463	0.41043386
6	0xbebc7337	-0.36806652
7	0xbe177da5	-0.14794023

module.ouput_layer.bias f4 [2]
0	0x3d580cdd	0.052746642
1	0xbe8bc7ed	-0.2730097

exp_avg f4 [57, 4]
0	0x3bc686c2	0.006058545
1	0x3c0b1c7f	0.008490681
2	0x3b3ef9ed	0.0029140667
3	0x3abf7da7	0.0014609591
4	0x3b07db68	0.0020730142
5	0x3b339475	0.002740172
6	0x3a7d8ec4	0.0009672458
7	0x39dea889	0.00042468708
8	0x385c0863	5.2459898e-05
9	0x38c95803	9.60082e-05
10	0x378ef6c5	1.704263e-05
11	0xb63b0432	-2.7867613e-06
12	0xb86767b2	-5.5171266e-05
13	0x36d7d08a	6.4317765e-06
14	0xb7918f77	-1.7352153e-05
15	0xb80defc9	-3.3840337e-05
16	0x3afab5aa	0.0019127626
17	0x3b1e6ff4	0.0024175616
18	0x3a652f56	0.00087427103
19	0x39a883ad	0.00032141563
20	0xb7bf82c3	-2.2829865e-05
21	0xb7941e73	-1.7657154e-05
22	0xb82ab196	-4.069655e-05
23	0xb8a30f1a	-7.7752586e-05
24	0x3c0076dd	0.007840839
25	0x3c341ce5	0.010993217
26	0x3b7885de	0.0037921588
27	0x3af21a83	0.0018471036
28	0x3af7fb7f	0.0018919556
29	0x3b167b29	0.0022961593
30	0x3a5e5316	0.00084810087
31	0x398f0671	0.00027279885
32	0xb9c55418	-0.00037637423
33	0xba42b59f	-0.00074275763
34	0xba443e75	-0.00074861135
35	0xbaafd90e	-0.0013416128
36	0x3a225975	0.00061931397
37	0x3a640210	0.0008697817
38	0x399c4fa1	0.00029813967
39	0x3924d03f	0.00015717837
40	0x3bacc803	0.0052728667
41	0x3bf00777	0.0073251086
42	0x3b260f04	0.002533854
43	0x3aa04942	0.0012228864
44	0x3bc3e7eb	0.0059785745
45	0x3bfc413f	0.0076982076
46	0x3b337a6e	0.0027386206
47	0x3a8e102c	0.001083856
48	0xb8825ebc	-6.216529e-05
49	0xb5b714ed	-1.3640653e-06
50	0xb7e163a5	-2.686849e-05
51	0xb83ef817	-4.553058e-05
52	0x3a133add	0.00056163763
53	0x3a99bb45	0.0011728784
54	0x39c1e47d	0.00036982066
55	0x392716f3	0.0001593491
56	0x381a19e7	3.6740585e-05
57	0x36cebcba	6.161249e-06
58	0x36a84aef	5.0155136e-06
59	0x37063be0	8.000963e-06
60	0xb71171c8	-8.669165e-06
61	0x37885d64	1.6255952e-05
62	0x35ae0894	1.2966507e-06
63	0xb5ce357d	-1.5363763e-06
64	0x3a277b56	0.0006388923
65	0x3b022d3c	0.0019863388
66	0x3a04327c	0.0005042923
67	0x3a36c8ad	0.0006972652
68	0xb86c8f6d	-5.640036e-05
69	0x3b0320fd	0.0020008676
70	0xbaef9e9a	-0.001828152
71	0xbba3fe4a	-0.005004679
72	0xb889105f	-6.5357184e-05
73	0xb93a9102	-0.00017792362
74	0xb91d7247	-0.00015015258
75	0xb96f7819	-0.00022837556
76	0xb81ec7b8	-3.7856138e-05
77	0x38310bac	4.221096e-05
78	0x365afa85	3.2630353e-06
79	0xb6c9c3fa	-6.0130815e-06
80	0x3543683b	7.2794836e-07
81	0x375cdec6	1.316489e-05
82	0x367cf156	3.7691402e-06
83	0x35b34470	1.3356457e-06
84	0x3915be9f	0.00014280759
85	0x39de37f1	0.0004238482
86	0xb95e449c	-0.00021197129
87	0xba338531	-0.0006848155
88	0xb895d554	-7.144609e-05
89	0x3805c127	3.1889558e-05
90	0xb7abe414	-2.0490996e-05
91	0xb7c98993	-2.402513e-05
92	0x37eb6cab	2.8064786e-05
93	0xb8db97be	-0.00010470998
94	0xb87f9da9	-6.094357e-05
95	0xb8be30b6	-9.068979e-05
96	0xb6fec605	-7.5928424e-06
97	0x3797e250	1.8105988e-05
98	0x345b287f	2.0410697e-07
99	0x359567b5	1.1131548e-06
100	0xb848aa62	-4.7842397e-05
101	0x36f8631c	7.402514e-06
102	0xb79574cc	-1.7816572e-05
103	0xb7eeef46	-2.8483231e-05
104	0xbab0091c	-0.0013430449
105	0xbb6c5e8d	-0.00360671
106	0xbb4de243	-0.003141538
107	0xbba73b2b	-0.005103489
108	0xb959cfc9	-0.00020772139
109	0x3a839c55	0.0010041097
110	0xb9e98615	-0.00044541122
111	0xba395e53	-0.00070712453
112	0xb9286f85	-0.00016063273
113	0xb8a76d06	-7.983488e-05
114	0xb9185255	-0.0001452652
115	0xb936d903	-0.00017437716
116	0xb84b942e	-4.8536975e-05
117	0x37d008bb	2.4799598e-05
118	0xb5af2f11	-1.3052214e-06
119	0xb6a4aff1	-4.908063e-06
120	0x3900b5e7	0.00012274795
121	0x374cb780	1.2202072e-05
122	0x37e22fb2	2.696351e-05
123	0xb71692fd	-8.97492e-06
124	0xb83761d0	-4.3721695e-05
125	0xb58ee4fc	-1.0646468e-06
126	0xb79ab9dc	-1.8444778e-05
127	0xb80de7dc	-3.3832956e-05
128	0xb850e70a	-4.9806236e-05
129	0xb6a78a0f	-4.99306e-06
130	0xb7c8ea04	-2.395083e-05
131	0xb822394d	-3.8677175e-05
132	0x3aab95f6	0.0013090956
133	0x3b083e7b	0.0020789194
134	0x3a32dff7	0.00068235345
135	0x39de8a8a	0.0004244636
136	0x373605fa	1.0849437e-05
137	0x381ec434	3.7852864e-05
138	0xb89d9082	-7.51326e-05
139	0xb942bc7b	-0.00018571496
140	0xb942dd7c	-0.00018583791
141	0x390d294b	0.0001346219
142	0xb9392a05	-0.00017658628
143	0xb9ac3ded	-0.00032852535
144	0xb839af63	-4.427078e-05
145	0x37aff589	2.0975962e-05
146	0xb73694d9	-1.0882702e-05
147	0xb7da8d32	-2.6053374e-05
148	0x3957465f	0.00020530213
149	0x3a3b912b	0.00071551156
150	0x381f6f39	3.801214e-05
151	0xb98e7269	-0.00027169593
152	0xb7e0c539	-2.679472e-05
153	0xb7e1b33f	-2.6905558e-05
154	0xb7e16d15	-2.6872885e-05
155	0xb8409744	-4.5917244e-05
156	0xba7d4423	-0.0009661337
157	0xba6192fc	-0.0008604971
158	0xba8fba40	-0.0010965541
159	0xbad43cce	-0.0016192438
160	0x3981bad8	0.00024744007
161	0x39ace9cc	0.0003298059
162	0x37a48336	1.9611423e-05
163	0xb936198e	-0.00017366392
164	0x3a7e3346	0.00096969714
165	0x3a8654bf	0.0010248645
166	0x39cef2d4	0.00039472303
167	0x39293073	0.00016135145
168	0xba86d1b3	-0.0010285884
169	0xbaa2800e	-0.0012397782
170	0xbaa7fbcb	-0.0012816129
171	0xbb02ef95	-0.0019979228
172	0x392db156	0.00016564628
173	0xb8caa4bb	-9.662794e-05
174	0xb8d6d7db	-0.000102445214
175	0xb97d43e7	-0.00024153256
176	0x3aab1173	0.0013051465
177	0x3b06ab1b	0.0020548764
178	0x3a2db717	0.0006626709
179	0x39d82a92	0.00041230448
180	0x3b1d5886	0.0024009063
181	0x3b67e9d6	0.003538718
182	0x3a9c753a	0.0011936792
183	0x3a29dc14	0.00064796326
184	0xb8835725	-6.262799e-05
185	0x374ccde8	1.2207289e-05
186	0xb795547a	-1.7801522e-05
187	0xb80a300c	-3.294651e-05
188	0x3b0947de	0.0020947377
189	0x3b2702d7	0.002548387
190	0x3a75d0e6	0.00093771366
191	0x39a0471c	0.0003057056
192	0xb7b94ad7	-2.2088569e-05
193	0xb863a53c	-5.4274904e-05
194	0xb8349b67	-4.3060074e-05
195	0xb899933f	-7.323035e-05
196	0xb801025a	-3.0758187e-05
197	0x37a73d88	1.9936604e-05
198	0xb6ec6c63	-7.045966e-06
199	0x3500eb07	4.8025726e-07
200	0x3914bc58	0.00014184543
201	0x3988c3b3	0.0002608575
202	0x389d7a5b	7.509134e-05
203	0x384ce0b7	4.8846672e-05
204	0xbb11263f	-0.002214804
205	0xba8d5595	-0.0010782952
206	0xbb0c12df	-0.0021373553
207	0xbb343ce2	-0.002750211
208	0x3ac129eb	0.0014737224
209	0x3b03e9e8	0.0020128433
210	0x3a36ad51	0.0006968575
211	0x39977a4f	0.0002889209
212	0xb85bd6f8	-5.2413874e-05
213	0x376b8949	1.4039056e-05
214	0xb78529e7	-1.5874348e-05
215	0xb806345d	-3.1996857e-05
216	0xba5dac7e	-0.00084561843
217	0xba8c1da6	-0.0010689988
218	0xba8a770a	-0.0010564041
219	0xbae093a3	-0.0017133843
220	0xb7bd47dd	-2.256402e-05
221	0xb6d016ad	-6.201523e-06
222	0xb76d9ecf	-1.4163276e-05
223	0xb7d0eb55	-2.4905117e-05
224	0xb85eec65	-5.3149084e-05
225	0x3729022d	1.0073692e-05
226	0xb779c6be	-1.488783e-05
227	0xb7e21cb7	-2.695467e-05

exp_avg_sq f4 [57, 4]
0	0x35a5110e	1.2298422e-06
1	0x361eef63	2.3683176e-06
2	0x349b31a7	2.8907127e-07
3	0x33a28e1a	7.569561e-08
4	0x3427a1c6	1.561194e-07
5	0x348de179	2.642735e-07
6	0x3312d3d2	3.4185923e-08
7	0x31f2557f	7.0528468e-09
8	0x30d31981	1.5359519e-09
9	0x311e7825	2.306032e-09
10	0x2fb8636c	3.3540049e-10
11	0x2f23d016	1.489869e-10
12	0x2eaea4dd	7.9418895e-11
13	0x2c4e9306	2.9355975e-12
14	0x2d0ab894	7.885376e-12
15	0x2e087d46	3.1034085e-11
16	0x34327ad1	1.6622222e-07
17	0x349c5cd9	2.912482e-07
18	0x3322659e	3.7810985e-08
19	0x31ca41d4	5.8864575e-09
20	0x30233698	5.9376637e-10
21	0x30879564	9.865002e-10
22	0x308b0d18	1.0117303e-09
23	0x3146e92b	2.8945333e-09
24	0x364eb2cf	3.0800472e-06
25	0x36c60b2c	5.9021604e-06
26	0x35448e84	7.322308e-07
27	0x341c269a	1.4542675e-07
28	0x342ee464	1.6288101e-07
29	0x348f4a79	2.6690012e-07
30	0x33185909	3.5471235e-08
31	0x31b82a8b	5.3599414e-09
32	0x33ac0f4e	8.012158e-08
33	0x3444623b	1.8289658e-07
34	0x336a87e5	5.4605966e-08
35	0x345c2ea8	2.050607e-07
36	0x3338d440	4.303388e-08
37	0x33b8024a	8.568584e-08
38	0x3233f626	1.0475139e-08
39	0x31530d78	3.0712197e-09
40	0x35a83958	1.2533665e-06
41	0x36245118	2.4485107e-06
42	0x34a11213	3.0001738e-07
43	0x338a6e3b	6.4461766e-08
44	0x35b70334	1.3635495e-06
45	0x3626a17d	2.4829926e-06
46	0x34a4be34	3.0685771e-07
47	0x338103f0	6.007747e-08
48	0x2ee81fc4	1.0555781e-10
49	0x2c6076f4	3.1898347e-12
50	0x2daab867	1.9408654e-11
51	0x2e789411	5.652018e-11
52	0x34065331	1.2509987e-07
53	0x34bfc825	3.5722147e-07
54	0x3318b30c	3.55531e-08
55	0x31d96188	6.3266192e-09
56	0x30d053f9	1.5157858e-09
57	0x3188b0cf	3.9782218e-09
58	0x2fe6e8f1	4.200227e-10
59	0x2f49a7e1	1.8340486e-10
60	0x2c804f0c	3.6467548e-12
61	0x2d50e6f4	1.1874713e-11
62	0x2a8fdad0	2.5553734e-13
63	0x2a8e8b1a	2.5320788e-13
64	0x33eadda0	1.09367875e-07
65	0x34c660a2	3.6950684e-07
66	0x3314028a	3.4461245e-08
67	0x32f065d4	2.7985983e-08
68	0x34c88b88	3.7354425e-07
69	0x352315e1	6.075407e-07
70	0x3539de13	6.924103e-07
71	0x364b9239	3.033447e-06
72	0x31dfebd6	6.5169656e-09
73	0x313ac270	2.7177087e-09
74	0x317c34a1	3.6700742e-09
75	0x31cc7bca	5.9512546e-09
76	0x2e248a04	3.7411865e-11
77	0x2e607dde	5.1043496e-11
78	0x2b779537	8.7959105e-13
79	0x2baa2112	1.2088405e-12
80	0x2de9c401	2.6576076e-11
81	0x2dd6cf9b	2.4421179e-11
82	0x2cb7e350	5.2264096e-12
83	0x2c2f8e5e	2.4948025e-12
84	0x343a74dc	1.7365113e-07
85	0x34e7bf6b	4.3166378e-07
86	0x33367699	4.248304e-08
87	0x330224bd	3.0301397e-08
88	0x2f0c63ab	1.2768335e-10
89	0x2e049163	3.0142455e-11
90	0x2d434267	1.1099211e-11
91	0x2daa3e01	1.9354298e-11
92	0x30626857	8.2366597e-10
93	0x31221104	2.3583775e-09
94	0x30994271	1.1151099e-09
95	0x3129ce86	2.4710132e-09
96	0x2c9099be	4.109795e-12
97	0x2d6a1518	1.3306044e-11
98	0x2b77751d	8.7914555e-13
99	0x2c6db502	3.3780205e-12
100	0x2e8ff3b3	6.546177e-11
101	0x2c919a9a	4.138312e-12
102	0x2d231403	9.269921e-12
103	0x2ddad01d	2.4876151e-11
104	0x343cae9f	1.7572391e-07
105	0x35185bda	5.6758074e-07
106	0x34c04060	3.5809626e-07
107	0x3571b53c	9.0043227e-07
108	0x33dcb87e	1.0278107e-07
109	0x34516292	1.9500501e-07
110	0x340d1b65	1.3141614e-07
111	0x34a44bd1	3.0602544e-07
112	0x3163be42	3.3140997e-09
113	0x31476154	2.9013636e-09
114	0x317f905f	3.718945e-09
115	0x32058935	7.772816e-09
116	0x2e9f9580	7.2570394e-11
117	0x2d9641b7	1.7082209e-11
118	0x2aaeb4fc	3.1034192e-13
119	0x2c07cff6	1.9300095e-12
120	0x3153752a	3.0771141e-09
121	0x3266f753	1.3443997e-08
122	0x308a97bc	1.0083947e-09
123	0x3010f911	5.274084e-10
124	0x2e8ba5ca	6.350438e-11
125	0x2b7bd7d6	8.9472646e-13
126	0x2d49bc71	1.146737e-11
127	0x2e237e97	3.7174343e-11
128	0x2e8fbe87	6.5367316e-11
129	0x2b94729f	1.0547846e-12
130	0x2d83fc8f	1.5005134e-11
131	0x2e2d4ce3	3.9403935e-11
132	0x343adc76	1.7402803e-07
133	0x34c07420	3.584728e-07
134	0x333a00ad	4.3307114e-08
135	0x323bc705	1.0930084e-08
136	0x311219b4	2.1260407e-09
137	0x3133d006	2.6166176e-09
138	0x31045d15	1.926144e-09
139	0x3205079f	7.743352e-09
140	0x3384e667	6.188639e-08
141	0x340eefad	1.3311974e-07
142	0x32e84662	2.7040361e-08
143	0x334467c4	4.572918e-08
144	0x2e5cd97b	5.021537e-11
145	0x2d88093c	1.546551e-11
146	0x2c734f7c	3.45765e-12
147	0x2daad98c	1.9423373e-11
148	0x32e9a875	2.7201375e-08
149	0x33d46fda	9.892365e-08
150	0x326b7e72	1.3707551e-08
151	0x32bb8d16	2.1833824e-08
152	0x309ccdb8	1.1408963e-09
153	0x308e3dba	1.0349404e-09
154	0x2f1f66c9	1.4497482e-10
155	0x2ff86aa5	4.5186713e-10
156	0x340db1ad	1.3196286e-07
157	0x343f94c0	1.7842376e-07
158	0x344f7d38	1.9323932e-07
159	0x34fd44ed	4.7175072e-07
160	0x3371d23d	5.6303396e-08
161	0x33a5add8	7.715033e-08
162	0x320be546	8.142996e-09
163	0x321b3250	9.033627e-09
164	0x336c6884	5.504309e-08
165	0x33b3fb29	8.381023e-08
166	0x323157e8	1.03227435e-08
167	0x3121b481	2.3531188e-09
168	0x33fb79fe	1.17102886e-07
169	0x341b624e	1.4471263e-07
170	0x34315987	1.651698e-07
171	0x34ccc1be	3.8138927e-07
172	0x314169ba	2.8145295e-09
173	0x30741a92	8.880444e-10
174	0x30a6fdaa	1.2150185e-09
175	0x31bf4582	5.5667337e-09
176	0x34a1c52b	3.0132045e-07
177	0x3521ad02	6.0228933e-07
178	0x339d04f5	7.311784e-08
179	0x32bfabee	2.2313511e-08
180	0x34d44941	3.9541376e-07
181	0x35580094	8.046711e-07
182	0x33cfca4d	9.675987e-08
183	0x32c3713c	2.275248e-08
184	0x2eea0e03	1.0643577e-10
185	0x2d10e4b7	8.236237e-12
186	0x2d1fa9e6	9.075829e-12
187	0x2e0a7b63	3.1487157e-11
188	0x344c0d3e	1.9003798e-07
189	0x348f92fa	2.6742765e-07
190	0x3322b95b	3.7887144e-08
191	0x3227636a	9.7432835e-09
192	0x315abcd4	3.1830512e-09
193	0x30993468	1.114711e-09
194	0x2fabf57e	3.1279151e-10
195	0x305d3bb3	8.048417e-10
196	0x2e35d121	4.134038e-11
197	0x2dbcced1	2.146497e-11
198	0x2c6ea2e0	3.3912248e-12
199	0x2c9782e2	4.306209e-12
200	0x3252b56c	1.2264859e-08
201	0x32c1a564	2.2543368e-08
202	0x31488c68	2.9183642e-09
203	0x306522ef	8.335936e-10
204	0x354d82c9	7.655877e-07
205	0x3551dab7	7.817684e-07
206	0x35893901	1.0223886e-06
207	0x3617df36	2.263068e-06
208	0x340c717a	1.3079799e-07
209	0x34994e44	2.8555417e-07
210	0x33016c62	3.0133727e-08
211	0x31ec506e	6.877648e-09
212	0x2e8e17ab	6.461617e-11
213	0x2d0f3ece	8.142554e-12
214	0x2cd482c2	6.0399194e-12
215	0x2de1a30c	2.5651946e-11
216	0x33daf9a8	1.0196828e-07
217	0x33fc1562	1.1738554e-07
218	0x3403b7e3	1.2267223e-07
219	0x34aa155b	3.1680506e-07
220	0x2f9c5acf	2.8440758e-10
221	0x2f444a37	1.7852463e-10
222	0x2ea47e1c	7.480258e-11
223	0x2f492503	1.8293993e-10
224	0x2e9484ea	6.753871e-11
225	0x2c99b609	4.3687315e-12
226	0x2cc29d62	5.5312846e-12
227	0x2da03f7e	1.821809e-11

exp_avg f4 [4, 11]
0	0x3d359412	0.044330664
1	0x3da83b98	0.082144916
2	0x3cb1b023	0.021690434
3	0x31db903f	6.3901378e-09
4	0xbce964ad	-0.028490389
5	0x3dec5748	0.11540085
6	0xbd9f10f5	-0.07766906
7	0xbcd47a3e	-0.025937196
8	0xbc5b38b7	-0.013380221
9	0xbd55edb9	-0.052228663
10	0xbe040983	-0.12894253
11	0xbb2c0048	-0.0026245285
12	0xbd3b2bd5	-0.0456961
13	0x3c0ccab2	0.008593248
14	0x34824015	2.4261013e-07
15	0x3c4acd1f	0.012378006
16	0xbda2a829	-0.0794223
17	0xbc9f8a39	-0.01947509
18	0xbcb5bc75	-0.02218459
19	0xbaafe70d	-0.0013420299
20	0x3c0cfd38	0.008605294
21	0x3c292652	0.010324078
22	0xbb99d001	-0.0046939855
23	0x3ac46900	0.0014984906
24	0xbba4f110	-0.0050336197
25	0xb41ec68d	-1.4787129e-07
26	0xb9f7ab84	-0.000472393
27	0x39cbce30	0.000388728
28	0x3c9d5cf9	0.019209372
29	0xbbcc796e	-0.0062400615
30	0x3a1a1d91	0.00058790395
31	0x3b7f0dff	0.0038918254
32	0xbbf03501	-0.0073305373
33	0x3c6b9d30	0.014380738
34	0x3e40ed4e	0.18840525
35	0xbb774973	-0.0037732988
36	0xb444d8d9	-1.8332811e-07
37	0xbd5f7098	-0.054550737
38	0x3eb1ee0d	0.3475193
39	0x3d9259bc	0.07146022
40	0x3e1fd8a4	0.15609986
41	0x3d848919	0.06471462
42	0x3d04d8fa	0.032433487
43	0xbcdf6c33	-0.027273273

exp_avg_sq f4 [4, 11]
0	0x3950f839	0.00019928896
1	0x3a2296ec	0.00062022987
2	0x38da4700	0.00010408275
3	0x22852ac4	3.6095002e-18
4	0x38734f9e	5.8009864e-05
5	0x3a9f7d9b	0.0012168171
6	0x396b0dd6	0.000224165
7	0x38e477ed	0.00010894225
8	0x38d6f8f1	0.00010250684
9	0x397ae451	0.00023926912
10	0x3aa3cab7	0.0012496327
11	0x380c2212	3.341033e-05
12	0x38f43f9f	0.00011646677
13	0x37a5a713	1.9747333e-05
14	0x270ff48d	1.9977808e-15
15	0x37016fed	7.715059e-06
16	0x39b9c97c	0.00035436067
17	0x37976bdb	1.8050827e-05
18	0x38103976	3.438579e-05
19	0x36e0c6f3	6.698881e-06
20	0x369bcd3e	4.6432533e-06
21	0x371e504d	9.43623e-06
22	0x36bbf329	5.601342e-06
23	0x35f9e5b0	1.8618794e-06
24	0x364fc86d	3.0962067e-06
25	0x265ca243	7.654774e-16
26	0x34d9e551	4.058625e-07
27	0x37392f39	1.1037854e-05
28	0x38876a74	6.45713e-05
29	0x371f79af	9.50547e-06
30	0x3622c613	2.4255176e-06
31	0x36e143cc	6.713415e-06
32	0x37250ce0	9.837764e-06
33	0x3946d717	0.00018962879
34	0x3acedb11	0.001578184
35	0x393d80e0	0.00018072454
36	0x26a703a0	1.1588935e-15
37	0x390d0fa7	0.00013452639
38	0x3bbd9202	0.0057852278
39	0x397ca045	0.00024092298
40	0x3a5282fc	0.00080303825
41	0x395cf45a	0.00021071863
42	0x38841c7a	6.299555e-05
43	0x38beeb37	9.103718e-05

exp_avg f4 [4]
0	0x3df28b0e	0.11842929
1	0xbd4ead66	-0.050458334
2	0x3b050573	0.0020297437
3	0x3e72dc20	0.23716784

exp_avg_sq f4 [4]
0	0x3a81d48f	0.0009905266
1	0x39081889	0.00012979111
2	0x36e5fa63	6.8538807e-06
3	0x3b1a9ba9	0.0023591316

exp_avg f4 [12, 4]
0	0xb96d93ff	-0.00022657214
1	0xbbd69ee5	-0.0065497034
2	0xba9e0e2a	-0.0012058665
3	0xbad9f693	-0.0016629271
4	0xbb44bbab	-0.0030019085
5	0xbdc82553	-0.09772744
6	0xbc312eb9	-0.010814362
7	0xbd0946ce	-0.03351479
8	0x3a8eed7c	0.0010904516
9	0x3c2f7046	0.01070792
10	0x3b338c16	0.002739673
11	0xbbc24269	-0.005928327
12	0x3af258cf	0.0018489602
13	0x3d4ca1af	0.04995888
14	0x3bda5fd0	0.006664254
15	0x3c7fedc3	0.015620652
16	0xb858af51	-5.166169e-05
17	0x3b0446e1	0.0020183849
18	0xb98af65e	-0.0002650497
19	0x3a87c420	0.0010358132
20	0xb833b998	-4.2849773e-05
21	0xb9145822	-0.00014147212
22	0xb9779d71	-0.00023614407
23	0x38a49ddd	7.849534e-05
24	0xb9088fd6	-0.00013023554
25	0xb67a8021	-3.7327484e-06
26	0xb92d747a	-0.00016541957
27	0x389bdcd2	7.432107e-05
28	0xb87b94fe	-5.9981823e-05
29	0xba80737b	-0.0009800041
30	0x3a2e68c5	0.0006653185
31	0xbaa2dcd4	-0.0012425431
32	0x3bdd9ab3	0.0067628263
33	0x3ed3d68a	0.41374618
34	0x3cec947b	0.028879395
35	0x3e096f15	0.1342128
36	0xbc9263a1	-0.017869772
37	0xbf2cf499	-0.67560726
38	0xbd88f4cb	-0.066873156
39	0xbe6df8f3	-0.23239498
40	0x3bb32eca	0.005468224
41	0x3d6c7a74	0.057733968
42	0x3c733a56	0.014845451
43	0xbd004e07	-0.031324413
44	0xbcf34417	-0.029695554
45	0xbf71dadd	-0.94474584
46	0xbddaddd9	-0.10686845
47	0xbe9606d9	-0.293021

exp_avg_sq f4 [12, 4]
0	0x314c3848	2.97179e-09
1	0x35c86b73	1.4932433e-06
2	0x334221dc	4.519994e-08
3	0x33e19233	1.05039724e-07
4	0x3489c465	2.5661134e-07
5	0x399f964a	0.00030438817
6	0x36428c81	2.8990037e-06
7	0x383ab92d	4.4518314e-05
8	0x34b0b524	3.2914352e-07
9	0x38539293	5.0442828e-05
10	0x359f2109	1.1856038e-06
11	0x369e384a	4.71532e-06
12	0x3457bb57	2.0091589e-07
13	0x38e896d9	0.000110907196
14	0x35df85b5	1.6653709e-06
15	0x376378b5	1.3558359e-05
16	0x313defa6	2.7639344e-09
17	0x350d7a3b	5.270446e-07
18	0x332ecb9e	4.069772e-08
19	0x34148752	1.3832803e-07
20	0x2f147758	1.3502921e-10
21	0x320835e8	7.928499e-09
22	0x3190e8be	4.2174113e-09
23	0x3081b129	9.436337e-10
24	0x31bf7ea0	5.573227e-09
25	0x32452e08	1.14773755e-08
26	0x31d25703	6.1216965e-09
27	0x30baa9fd	1.3581595e-09
28	0x30a41b86	1.1940393e-09
29	0x34972620	2.815368e-07
30	0x33c6e62e	9.261963e-08
31	0x340dad96	1.3194798e-07
32	0x362d39ec	2.5812724e-06
33	0x3c0867a9	0.008325496
34	0x38000bd6	3.05286e-05
35	0x3a939a87	0.0011261263
36	0x371ff97c	9.535226e-06
37	0x3c73ca63	0.014879796
38	0x38efe8e5	0.00011439788
39	0x3b11f1a0	0.0022269264
40	0x36fecb81	7.593481e-06
41	0x3aa7a457	0.0012790066
42	0x3805d52c	3.1908203e-05
43	0x38ebbd87	0.000112409754
44	0x3837f694	4.3860244e-05
45	0x3d0a806d	0.033813883
46	0x39c737ce	0.00037997816
47	0x3b84a887	0.0040484103

exp_avg f4 [12, 4]
0	0xbae0a31f	-0.0017138458
1	0xbb55e2f4	-0.0032636495
2	0xba9ad3aa	-0.0011812348
3	0x3bc363be	0.005962818
4	0xbc458dfe	-0.012057779
5	0xbd23cba9	-0.039989147
6	0xbc6a0478	-0.014283292
7	0x3da1c9b0	0.07899797
8	0x3b709968	0.003671253
9	0x3b4aca33	0.0030943274
10	0x3b806ff5	0.0039195963
11	0xbbdde338	-0.0067714714
12	0x3bfb96fc	0.007677911
13	0x3ca95534	0.02067051
14	0x3c078eed	0.008273822
15	0xbd29bc1e	-0.04143917
16	0x3a2c92bb	0.0006583144
17	0x3a154a37	0.0005694958
18	0x39ad47da	0.00033050665
19	0xba7bd5cb	-0.0009606748
20	0x390b600f	0.00013291858
21	0xb8b6f727	-8.724472e-05
22	0x37c54254	2.3515116e-05
23	0x393878b3	0.00017592571
24	0xb838c729	-4.40545e-05
25	0xb861fa63	-5.387737e-05
26	0xb80f16b1	-3.411499e-05
27	0x38de7ea0	0.00010609371
28	0xb9de139a	-0.00042357744
29	0xb88f630a	-6.837219e-05
30	0xb755b48d	-1.2737827e-05
31	0xb9196c78	-0.00014631625
32	0x3ca842b4	0.020539619
33	0x3dafa54f	0.08576452
34	0x3d05c924	0.032662526
35	0xbe32cfb5	-0.17462046
36	0xbce6f383	-0.028192287
37	0xbdd8c559	-0.10584516
38	0xbd1c14ac	-0.03810565
39	0x3e573ec4	0.21020037
40	0x3c079d47	0.008277244
41	0x3bee04de	0.007263764
42	0x3c0da2cd	0.008644772
43	0xbc7fcbe5	-0.015612577
44	0xbd1bb5bf	-0.038015123
45	0xbdc7b718	-0.09751719
46	0xbd25e63e	-0.04050278
47	0x3e454740	0.19265461

exp_avg_sq f4 [12, 4]
0	0x33e7b5fe	1.078988e-07
1	0x34b260a3	3.3225396e-07
2	0x33697486	5.4355517e-08
3	0x35a53cb4	1.2311125e-06
4	0x36a9c36c	5.0593426e-06
5	0x3842c700	4.6438538e-05
6	0x36fdadfe	7.560243e-06
7	0x3957f14f	0.00020593892
8	0x36770424	3.6808278e-06
9	0x36da1eda	6.500498e-06
10	0x36944e16	4.419834e-06
11	0x382ab103	4.0696013e-05
12	0x36784d9b	3.7000052e-06
13	0x378d7b0d	1.686581e-05
14	0x3697b082	4.520699e-06
15	0x38add95f	8.289771e-05
16	0x3344cb8e	4.5819938e-08
17	0x336fb364	5.580968e-08
18	0x32e39dfe	2.6498125e-08
19	0x3489e868	2.5687336e-07
20	0x30522110	7.644454e-10
21	0x310644ae	1.9538606e-09
22	0x2f7e4085	2.3124087e-10
23	0x3224ffb9	9.604201e-09
24	0x31122d1d	2.127144e-09
25	0x312ba8cd	2.4979727e-09
26	0x310e7159	2.072815e-09
27	0x32852e72	1.5504359e-08
28	0x32938a13	1.7175841e-08
29	0x337b2121	5.8470622e-08
30	0x31ec337c	6.874357e-09
31	0x349fd1e5	2.9768776e-07
32	0x37f39514	2.9037277e-05
33	0x39a2ce27	0.00031052643
34	0x3894f151	7.1021386e-05
35	0x3acbc28f	0.0015545654
36	0x37fa7124	2.9855008e-05
37	0x39ab5c5c	0.00032684475
38	0x38645064	5.4434306e-05
39	0x3abfe41a	0.0014640123
40	0x3794985d	1.7713925e-05
41	0x37fdf442	3.0273692e-05
42	0x37a79e31	1.9981615e-05
43	0x3942539d	0.0001853243
44	0x389e99c0	7.562665e-05
45	0x39add227	0.00033153707
46	0x38bc6f99	8.985325e-05
47	0x3acbefec	0.0015559173

exp_avg f4 [12]
0	0xbc5a34ff	-0.013318299
1	0xbe25cb5f	-0.16190861
2	0x3c96658c	0.018358968
3	0x3daf7c2f	0.08568608
4	0x3b1e9466	0.002419734
5	0xb94e7581	-0.00019689465
6	0xb9818f32	-0.00024711486
7	0xb9b6915a	-0.0003482204
8	0x3f252e66	0.64523923
9	0xbf8b24ee	-1.0870645
10	0x3dcb6270	0.09930885
11	0xbfc8424c	-1.5645232

exp_avg_sq f4 [12]
0	0x36c3f9c7	5.840531e-06
1	0x3a535f39	0.00080632005
2	0x39299085	0.00016170934
3	0x39aa0dc8	0.00032435195
4	0x35881039	1.0137511e-06
5	0x32f5ae6f	2.8601077e-08
6	0x33830485	6.100985e-08
7	0x35713a01	8.9863903e-07
8	0x3ca021a7	0.019547297
9	0x3d197b2a	0.037470974
10	0x3b87407d	0.0041275606
11	0x3dbd98b7	0.09257644

exp_avg f4 [12]
0	0xbc5a32da	-0.013317788
1	0xbe25cb47	-0.16190825
2	0x3c9664e3	0.018358653
3	0x3daf7c44	0.08568624
4	0x3b1e9a13	0.0024200722
5	0xb94e440a	-0.00019671037
6	0xb98161d3	-0.00024677682
7	0xb9b69c8f	-0.0003483039
8	0x3eb3d740	0.3512516
9	0xbedbf3e7	-0.4295952
10	0x3d2bcd97	0.041944113
11	0xbed05b3b	-0.40694603

exp_avg_sq f4 [12]
0	0x36c3f69d	5.8401624e-06
1	0x3a535f05	0.000806317
2	0x3929903d	0.00016170829
3	0x39aa0de7	0.00032435285
4	0x3588121a	1.0138058e-06
5	0x32f5a8b5	2.8598473e-08
6	0x3382fc5d	6.099501e-08
7	0x357139fd	8.986388e-07
8	0x3bbc4b20	0.0057462603
9	0x3bbb2f5f	0.005712434
10	0x3a449bdf	0.0007500033
11	0x3bd14de2	0.006387458

exp_avg f4 [12, 1]
0	0xb2b3a208	-2.0912026e-08
1	0xb479517c	-2.3219576e-07
2	0xb4d845f8	-4.0284044e-07
3	0xb3252ebf	-3.845957e-08
4	0xb2c90e03	-2.3405851e-08
5	0x34646545	2.1270996e-07
6	0x349388b6	2.7480354e-07
7	0xb4a48686	-3.064526e-07
8	0xb4de4dc2	-4.1407299e-07
9	0x320e9214	8.298702e-09
10	0xb4e0805b	-4.1816642e-07
11	0xb444cb3e	-1.8327862e-07

exp_avg_sq f4 [12, 1]
0	0x23cba974	2.208107e-17
1	0x2704274d	1.8339985e-15
2	0x27c28832	5.399348e-15
3	0x2490cb98	6.2794946e-17
4	0x23f5c6f6	2.6647216e-17
5	0x26ded9e5	1.5463405e-15
6	0x27379ffc	2.548308e-15
7	0x27635192	3.1546798e-15
8	0x27cd5c68	5.6999117e-15
9	0x22c13318	5.2366852e-18
10	0x27d16156	5.8114685e-15
11	0x26a6ed49	1.158288e-15

exp_avg f4 [12, 4]
0	0xba15c68f	-0.00057134865
1	0xbb3ae5c6	-0.0028518303
2	0xba86e177	-0.0010290582
3	0x3bd18065	0.0063934796
4	0x3bb55c57	0.0055346894
5	0x3c84df9a	0.016219903
6	0x3b4f787e	0.0031657512
7	0xbc6c0c0b	-0.014407168
8	0x3c00aae4	0.0078532435
9	0x3d02ca51	0.031931225
10	0x3bb7ab24	0.0056051183
11	0xbca282f1	-0.019837828
12	0xbcf7bd01	-0.030241491
13	0xbdf72d53	-0.12069192
14	0xbcd73468	-0.026270106
15	0x3de95226	0.11392622
16	0x3b4dd2f8	0.0031406265
17	0xbb9d2f0b	-0.0047968677
18	0xba7949ff	-0.00095096225
19	0x3b3d4a6b	0.0028883468
20	0x3b7465a9	0.003729204
21	0x3c8080c2	0.015686397
22	0x3ba8ea30	0.0051548705
23	0xbcb33f0a	-0.021880645
24	0x3bb008a8	0.0053721257
25	0x3b92fc2f	0.004485629
26	0x3bd273c1	0.0064224903
27	0xbca03bea	-0.01955982
28	0x3d7e5b97	0.062099066
29	0x3e9046f7	0.28179142
30	0x3d9833b0	0.074317336
31	0xbec72401	-0.38894656
32	0x3cd59562	0.026072208
33	0x3dba5f69	0.09100229
34	0x3cab6c2a	0.0209256
35	0xbdaf201e	-0.08551048
36	0xbd86b249	-0.06576974
37	0xbe89bcea	-0.26901942
38	0xbd544a10	-0.051828444
39	0x3e632e0f	0.22185539
40	0x3e07d543	0.13264947
41	0x3ed3c0b6	0.41357964
42	0x3dbb6c00	0.09151459
43	0xbea155c4	-0.31510746
44	0xbe0916d5	-0.13387616
45	0xbf00e074	-0.5034249
46	0xbddb35a1	-0.10703588
47	0x3ee61c7c	0.44943607

exp_avg_sq f4 [12, 4]
0	0x32a14804	1.8775616e-08
1	0x34b3e452	3.3507473e-07
2	0x339afaff	7.21684e-08
3	0x3611f7b1	2.175086e-06
4	0x359be97b	1.1616352e-06
5	0x3710c065	8.627864e-06
6	0x3500e206	4.8012623e-07
7	0x370d2699	8.413242e-06
8	0x3692cefb	4.3752348e-06
9	0x382cc9f2	4.1196072e-05
10	0x361032ac	2.1487167e-06
11	0x37bdc2e7	2.2621314e-05
12	0x3854e7e8	5.076072e-05
13	0x3a02a68d	0.00049839244
14	0x381cfefe	3.743078e-05
15	0x3a11a027	0.00055551756
16	0x34b399ce	3.3453256e-07
17	0x358dba0a	1.0559463e-06
18	0x3402366f	1.2126996e-07
19	0x35216a16	6.013155e-07
20	0x352b8516	6.389613e-07
21	0x3701a0af	7.726411e-06
22	0x35914494	1.0823301e-06
23	0x37924ed4	1.7441263e-05
24	0x36876602	4.035189e-06
25	0x366b5505	3.5067217e-06
26	0x36b28a24	5.320895e-06
27	0x381b0f0c	3.6968893e-05
28	0x398bc375	0.00026657773
29	0x3b3bc153	0.0028649166
30	0x39ab64dc	0.00032690808
31	0x3bd81899	0.006594729
32	0x385a5ff8	5.2064628e-05
33	0x39dacd74	0.00041733275
34	0x3811913c	3.4705954e-05
35	0x39ee26c4	0.0004542378
36	0x392b3ad3	0.00016329745
37	0x3b0aaea5	0.0021161225
38	0x38dc1501	0.0001049433
39	0x3ae0700c	0.0017123236
40	0x3aac4820	0.0013144054
41	0x3bf4c331	0.0074695577
42	0x3a3243b3	0.0006800249
43	0x3bd361e0	0.0064508766
44	0x3a81effc	0.000991344
45	0x3c1095a4	0.00882474
46	0x3a26962f	0.00063547766
47	0x3c10fc08	0.008849151

exp_avg f4 [12]
0	0xbc3fd9b1	-0.0117096165
1	0x3d6ae426	0.057346486
2	0x3de03535	0.109476484
3	0xbedc3c08	-0.4301455
4	0xbc78e576	-0.0151914265
5	0x3d7bbdf3	0.061460447
6	0x3cf149c6	0.029454123
7	0x3f86d369	1.0533267
8	0x3f43cc89	0.7648397
9	0xc0132238	-2.2989635
10	0x400ebdf8	2.2303448
11	0xc04f9747	-3.2436082

exp_avg_sq f4 [12]
0	0x36d1e4df	6.2553295e-06
1	0x38f17c19	0.000115148905
2	0x3a0b58a6	0.0005315639
3	0x3be0f5f4	0.0068652574
4	0x374b2fda	1.2110884e-05
5	0x39047bcf	0.00012634623
6	0x38f7ca71	0.000118155855
7	0x3d33b16a	0.043870367
8	0x3d05591a	0.032555677
9	0x3e25151e	0.16121337
10	0x3e772c16	0.24137911
11	0x3eccb07b	0.39978394

exp_avg f4 [12]
0	0xbc3fd983	-0.011709574
1	0x3d6ae4c2	0.057347067
2	0x3de0354e	0.10947667
3	0xbedc3c04	-0.43014538
4	0xbc78e793	-0.01519193
5	0x3d7bbdff	0.06146049
6	0x3cf14a33	0.029454326
7	0x3f86d367	1.0533265
8	0x3ea90852	0.3301416
9	0xbf70329c	-0.93827224
10	0x3fbc9378	1.4732504
11	0xbfe4e5cb	-1.7882627

exp_avg_sq f4 [12]
0	0x36d1e499	6.2552976e-06
1	0x38f17d2c	0.000115150906
2	0x3a0b58bf	0.00053156534
3	0x3be0f5ed	0.006865254
4	0x374b31fa	1.2111379e-05
5	0x39047bd8	0.00012634636
6	0x38f7cacd	0.000118156524
7	0x3d33b166	0.043870352
8	0x3bc549f2	0.006020778
9	0x3cddb5c7	0.027064217
10	0x3dd9f5dd	0.10642598
11	0x3df78e97	0.12087744

exp_avg f4 [4, 4]
0	0xbfd65ce8	-1.6747103
1	0xc0bca0a4	-5.8946095
2	0xbf534294	-0.82523465
3	0x3e8aa74d	0.27080765
4	0xbfeec3a5	-1.8653456
5	0xc0d819fb	-6.7531714
6	0xbf71e9b1	-0.9449721
7	0x3e936411	0.28787282
8	0xb4f1c89e	-4.5035716e-07
9	0xb2dbaf43	-2.5574655e-08
10	0x3383b617	6.133285e-08
11	0x34ed2740	4.4173248e-07
12	0x3f5358b3	0.8255722
13	0x4028cd90	2.6375465
14	0x3ec84538	0.3911531
15	0x3cec4dce	0.028845694

exp_avg_sq f4 [4, 4]
0	0x3e0c514e	0.1370289
1	0x3f9ba07c	1.2158351
2	0x3d09b463	0.033619296
3	0x3cb7d576	0.022440653
4	0x3e260461	0.16212608
5	0x3fccfd69	1.6014835
6	0x3d31e609	0.04343227
7	0x3ccce7ae	0.025012817
8	0x27f2581d	6.7264026e-15
9	0x240eb884	3.0947633e-17
10	0x2528194f	1.4580252e-16
11	0x27e946b8	6.4747165e-15
12	0x3d18d165	0.03730907
13	0x3e8ae00e	0.27124065
14	0x3c0cd8d2	0.008596616
15	0x3b6f5805	0.003652097

exp_avg f4 [4]
0	0xc1947b67	-18.560255
1	0xc1a9b581	-21.213625
2	0xb4d39556	-3.941047e-07
3	0x410514fb	8.317622

exp_avg_sq f4 [4]
0	0x414e6497	12.899558
1	0x418671a1	16.805483
2	0x27ba501a	5.1712217e-15
3	0x403b0572	2.9222074

exp_avg f4 [2, 4]
0	0xbeae8cdb	-0.3409184
1	0xbe5f8833	-0.218293
2	0xb48b5244	-2.5950624e-07
3	0xbe1176e4	-0.1420551
4	0xc0ff2e5c	-7.974409
5	0xc0ad51d5	-5.4162393
6	0xb4c185f7	-3.6046524e-07
7	0xc05bd296	-3.4347281

exp_avg_sq f4 [2, 4]
0	0x3b582eb6	0.0032986826
1	0x3a915313	0.001108738
2	0x27242cb4	2.2783806e-15
3	0x3a4ca350	0.0007806318
4	0x40087544	2.1321573
5	0x3f5b9613	0.8577587
6	0x279c519a	4.338717e-15
7	0x3f0318fb	0.5120999

exp_avg f4 [2]
0	0xc013d8cc	-2.3101072
1	0xc25dfb85	-55.495625

exp_avg_sq f4 [2]
0	0x3e354515	0.17702134
1	0x42ef6a13	119.70718
